{
  "{\"x\":\"bf16[1024,4096]\",\"labels\":\"i32[1024]\",\"w\":\"bf16[4096,151936]\",\"reduction\":\"mean\",\"return_residuals\":false}": {
    "{}": {
      "compile_time_ms": 753.8452961016446,
      "lower_time_ms": 30.46218096278608,
      "evaluation_times_ms": [
        1.917084,
        1.920251,
        1.918588,
        1.9199000000000002,
        1.917948
      ],
      "metadata": {
        "peak_memory_mb": 1523.7539081573486
      }
    }
  },
  "{\"x\":\"f32[1024,4096]\",\"labels\":\"i32[1024]\",\"w\":\"bf16[4096,151936]\",\"reduction\":\"mean\",\"return_residuals\":false}": {
    "{}": {
      "compile_time_ms": 556.997206993401,
      "lower_time_ms": 26.493629906326532,
      "evaluation_times_ms": [
        5.403312,
        5.403151,
        5.408015,
        5.404304,
        5.413167
      ],
      "metadata": {
        "peak_memory_mb": 4202.503910064697
      }
    }
  },
  "{\"x\":\"bf16[1024,4096]\",\"labels\":\"i32[1024]\",\"w\":\"bf16[4096,151936]\",\"reduction\":\"sum\",\"return_residuals\":false}": {
    "{}": {
      "compile_time_ms": 193.9017119584605,
      "lower_time_ms": 18.965677940286696,
      "evaluation_times_ms": [
        1.9150900000000002,
        1.9160190000000001,
        1.916178,
        1.920755,
        1.918675
      ],
      "metadata": {
        "peak_memory_mb": 1523.7539081573486
      }
    }
  },
  "{\"x\":\"f32[1024,4096]\",\"labels\":\"i32[1024]\",\"w\":\"bf16[4096,151936]\",\"reduction\":\"sum\",\"return_residuals\":false}": {
    "{}": {
      "compile_time_ms": 202.00695109087974,
      "lower_time_ms": 19.364758976735175,
      "evaluation_times_ms": [
        5.399770999999999,
        5.400091,
        5.420411,
        5.417755,
        5.41702
      ],
      "metadata": {
        "peak_memory_mb": 4202.503910064697
      }
    }
  },
  "{\"x\":\"bf16[2048,4096]\",\"labels\":\"i32[2048]\",\"w\":\"bf16[4096,151936]\",\"reduction\":\"mean\",\"return_residuals\":false}": {
    "{}": {
      "compile_time_ms": 567.2659260453656,
      "lower_time_ms": 27.878603083081543,
      "evaluation_times_ms": [
        3.7834220000000003,
        3.791071,
        3.793279,
        3.7931510000000004,
        3.797823
      ],
      "metadata": {
        "peak_memory_mb": 1828.5078144073486
      }
    }
  },
  "{\"x\":\"f32[2048,4096]\",\"labels\":\"i32[2048]\",\"w\":\"bf16[4096,151936]\",\"reduction\":\"mean\",\"return_residuals\":false}": {
    "{}": {
      "compile_time_ms": 2141.108772950247,
      "lower_time_ms": 29.3016440118663,
      "evaluation_times_ms": [
        9.636609,
        9.649666,
        9.644386,
        9.666081,
        9.771681
      ],
      "metadata": {
        "peak_memory_mb": 4812.007816314697
      }
    }
  },
  "{\"x\":\"bf16[2048,4096]\",\"labels\":\"i32[2048]\",\"w\":\"bf16[4096,151936]\",\"reduction\":\"sum\",\"return_residuals\":false}": {
    "{}": {
      "compile_time_ms": 630.431174999103,
      "lower_time_ms": 26.55160496942699,
      "evaluation_times_ms": [
        3.819343,
        3.820656,
        3.826159,
        3.82312,
        3.821232
      ],
      "metadata": {
        "peak_memory_mb": 1828.5078144073486
      }
    }
  },
  "{\"x\":\"f32[2048,4096]\",\"labels\":\"i32[2048]\",\"w\":\"bf16[4096,151936]\",\"reduction\":\"sum\",\"return_residuals\":false}": {
    "{}": {
      "compile_time_ms": 203.93622800474986,
      "lower_time_ms": 17.189832986332476,
      "evaluation_times_ms": [
        9.613327,
        9.640911,
        9.641936,
        9.659823000000001,
        9.698448
      ],
      "metadata": {
        "peak_memory_mb": 4812.007816314697
      }
    }
  },
  "{\"x\":\"bf16[4096,4096]\",\"labels\":\"i32[4096]\",\"w\":\"bf16[4096,151936]\",\"reduction\":\"mean\",\"return_residuals\":false}": {
    "{}": {
      "compile_time_ms": 715.8422089996748,
      "lower_time_ms": 25.752930960152298,
      "evaluation_times_ms": [
        7.659120000000001,
        7.656944,
        7.628911,
        7.686416,
        7.693872
      ],
      "metadata": {
        "peak_memory_mb": 2438.0156269073486
      }
    }
  },
  "{\"x\":\"f32[4096,4096]\",\"labels\":\"i32[4096]\",\"w\":\"bf16[4096,151936]\",\"reduction\":\"mean\",\"return_residuals\":false}": {
    "{}": {
      "compile_time_ms": 600.5627870326862,
      "lower_time_ms": 22.92223199037835,
      "evaluation_times_ms": [
        17.943553,
        18.038273999999998,
        18.902439,
        19.124456,
        18.980358
      ],
      "metadata": {
        "peak_memory_mb": 6031.015628814697
      }
    }
  },
  "{\"x\":\"bf16[1024,3840]\",\"labels\":\"i32[1024]\",\"w\":\"bf16[3840,262144]\",\"reduction\":\"sum\",\"return_residuals\":false}": {
    "{}": {
      "compile_time_ms": 2959.2100990121253,
      "lower_time_ms": 152.74601499550045,
      "evaluation_times_ms": [
        3.1504689999999997,
        3.1429810000000002,
        3.134213,
        3.136069,
        3.147621
      ],
      "metadata": {
        "peak_memory_mb": 2471.5039081573486
      }
    }
  },
  "{\"x\":\"f32[1024,3840]\",\"labels\":\"i32[1024]\",\"w\":\"bf16[3840,262144]\",\"reduction\":\"sum\",\"return_residuals\":false}": {
    "{}": {
      "compile_time_ms": 1894.74993100157,
      "lower_time_ms": 27.72375097265467,
      "evaluation_times_ms": [
        8.794974,
        8.81555,
        8.832734,
        8.864798,
        8.984606
      ],
      "metadata": {
        "peak_memory_mb": 6831.003910064697
      }
    }
  },
  "{\"x\":\"bf16[2048,3840]\",\"labels\":\"i32[2048]\",\"w\":\"bf16[3840,262144]\",\"reduction\":\"mean\",\"return_residuals\":false}": {
    "{}": {
      "compile_time_ms": 1832.0133390370756,
      "lower_time_ms": 29.569520032964647,
      "evaluation_times_ms": [
        6.214065,
        6.261233,
        6.266832,
        6.284688,
        6.240624
      ],
      "metadata": {
        "peak_memory_mb": 2991.0078144073486
      }
    }
  },
  "{\"x\":\"f32[2048,3840]\",\"labels\":\"i32[2048]\",\"w\":\"bf16[3840,262144]\",\"reduction\":\"mean\",\"return_residuals\":false}": {
    "{}": {
      "compile_time_ms": 564.5878050127067,
      "lower_time_ms": 28.089992003515363,
      "evaluation_times_ms": [
        15.648618,
        15.898314000000001,
        16.49374,
        16.082698999999998,
        16.489003999999998
      ],
      "metadata": {
        "peak_memory_mb": 7870.007816314697
      }
    }
  },
  "{\"x\":\"bf16[2048,3840]\",\"labels\":\"i32[2048]\",\"w\":\"bf16[3840,262144]\",\"reduction\":\"sum\",\"return_residuals\":false}": {
    "{}": {
      "compile_time_ms": 161.24345600837842,
      "lower_time_ms": 20.251232956070453,
      "evaluation_times_ms": [
        6.215248,
        6.278319,
        6.248751,
        6.264431,
        6.257423
      ],
      "metadata": {
        "peak_memory_mb": 2991.0078144073486
      }
    }
  },
  "{\"x\":\"f32[2048,3840]\",\"labels\":\"i32[2048]\",\"w\":\"bf16[3840,262144]\",\"reduction\":\"sum\",\"return_residuals\":false}": {
    "{}": {
      "compile_time_ms": 4259.942497999873,
      "lower_time_ms": 123.78192297182977,
      "evaluation_times_ms": [
        15.69461,
        15.687666,
        16.376015,
        16.714479,
        16.315312000000002
      ],
      "metadata": {
        "peak_memory_mb": 7870.007816314697
      }
    }
  },
  "{\"x\":\"bf16[4096,3840]\",\"labels\":\"i32[4096]\",\"w\":\"bf16[3840,262144]\",\"reduction\":\"mean\",\"return_residuals\":false}": {
    "{}": {
      "compile_time_ms": 2530.3823880385607,
      "lower_time_ms": 30.141310999169946,
      "evaluation_times_ms": [
        12.437216999999999,
        12.515553,
        13.348927000000002,
        13.360287,
        13.369215
      ],
      "metadata": {
        "peak_memory_mb": 4030.0156269073486
      }
    }
  },
  "{\"x\":\"f32[4096,3840]\",\"labels\":\"i32[4096]\",\"w\":\"bf16[3840,262144]\",\"reduction\":\"mean\",\"return_residuals\":false}": {
    "{}": {
      "compile_time_ms": 4469.2026050179265,
      "lower_time_ms": 27.67658804077655,
      "evaluation_times_ms": [
        29.439156999999998,
        31.136369000000002,
        31.043857000000003,
        31.843439,
        30.715154000000002
      ],
      "metadata": {
        "peak_memory_mb": 9948.015628814697
      }
    }
  },
  "{\"x\":\"bf16[4096,3840]\",\"labels\":\"i32[4096]\",\"w\":\"bf16[3840,262144]\",\"reduction\":\"sum\",\"return_residuals\":false}": {
    "{}": {
      "compile_time_ms": 160.96937598194927,
      "lower_time_ms": 20.466173999011517,
      "evaluation_times_ms": [
        12.476851,
        12.461713999999999,
        12.474995,
        13.09365,
        13.762322000000001
      ],
      "metadata": {
        "peak_memory_mb": 4030.0156269073486
      }
    }
  },
  "{\"x\":\"f32[4096,3840]\",\"labels\":\"i32[4096]\",\"w\":\"bf16[3840,262144]\",\"reduction\":\"sum\",\"return_residuals\":false}": {
    "{}": {
      "compile_time_ms": 167.84883104264736,
      "lower_time_ms": 19.451185944490135,
      "evaluation_times_ms": [
        29.37335,
        29.921957000000003,
        31.912641999999998,
        31.428259,
        32.600672
      ],
      "metadata": {
        "peak_memory_mb": 9948.015628814697
      }
    }
  },
  "{\"x\":\"bf16[16384,3840]\",\"labels\":\"i32[16384]\",\"w\":\"bf16[3840,262144]\",\"reduction\":\"mean\",\"return_residuals\":false}": {
    "{}": {
      "compile_time_ms": 2198.567095096223,
      "lower_time_ms": 134.76634002290666,
      "evaluation_times_ms": [
        50.486378,
        54.22404,
        53.470696000000004,
        54.242248000000004,
        54.558408
      ],
      "metadata": {
        "peak_memory_mb": 10264.125001907349
      }
    }
  },
  "{\"x\":\"f32[16384,3840]\",\"labels\":\"i32[16384]\",\"w\":\"bf16[3840,262144]\",\"reduction\":\"mean\",\"return_residuals\":false}": {
    "{}": {
      "compile_time_ms": 650.8854780113325,
      "lower_time_ms": 22.91746495757252,
      "evaluation_times_ms": [
        119.776371,
        120.622291,
        121.61019399999999,
        132.094415,
        124.15172899999999
      ],
      "metadata": {
        "peak_memory_mb": 22416.062503814697
      }
    }
  },
  "{\"x\":\"bf16[16384,3840]\",\"labels\":\"i32[16384]\",\"w\":\"bf16[3840,262144]\",\"reduction\":\"sum\",\"return_residuals\":false}": {
    "{}": {
      "compile_time_ms": 174.6538890292868,
      "lower_time_ms": 14.994552009738982,
      "evaluation_times_ms": [
        49.571128,
        54.514455,
        53.946262999999995,
        54.872567000000004,
        54.793367
      ],
      "metadata": {
        "peak_memory_mb": 10264.125001907349
      }
    }
  },
  "{\"x\":\"f32[16384,3840]\",\"labels\":\"i32[16384]\",\"w\":\"bf16[3840,262144]\",\"reduction\":\"sum\",\"return_residuals\":false}": {
    "{}": {
      "compile_time_ms": 178.7023670040071,
      "lower_time_ms": 14.02603997848928,
      "evaluation_times_ms": [
        119.562303,
        121.367903,
        120.240639,
        134.052507,
        123.789886
      ],
      "metadata": {
        "peak_memory_mb": 22416.062503814697
      }
    }
  },
  "{\"x\":\"bf16[32768,3840]\",\"labels\":\"i32[32768]\",\"w\":\"bf16[3840,262144]\",\"reduction\":\"mean\",\"return_residuals\":false}": {
    "{}": {
      "compile_time_ms": 645.2259330544621,
      "lower_time_ms": 24.210910080000758,
      "evaluation_times_ms": [
        104.473764,
        108.29258,
        108.831428,
        116.569188,
        114.03626000000001
      ],
      "metadata": {
        "peak_memory_mb": 18608.25000190735
      }
    }
  },
  "{\"x\":\"f32[32768,3840]\",\"labels\":\"i32[32768]\",\"w\":\"bf16[3840,262144]\",\"reduction\":\"mean\",\"return_residuals\":false}": {},
  "{\"x\":\"bf16[32768,3840]\",\"labels\":\"i32[32768]\",\"w\":\"bf16[3840,262144]\",\"reduction\":\"sum\",\"return_residuals\":false}": {
    "{}": {
      "compile_time_ms": 737.9058650112711,
      "lower_time_ms": 22.71564700640738,
      "evaluation_times_ms": [
        104.70239199999999,
        110.131174,
        109.296677,
        113.71937600000001,
        115.98898299999999
      ],
      "metadata": {
        "peak_memory_mb": 18608.25000190735
      }
    }
  },
  "{\"x\":\"f32[32768,3840]\",\"labels\":\"i32[32768]\",\"w\":\"bf16[3840,262144]\",\"reduction\":\"sum\",\"return_residuals\":false}": {},
  "{\"x\":\"bf16[131072,3840]\",\"labels\":\"i32[131072]\",\"w\":\"bf16[3840,262144]\",\"reduction\":\"mean\",\"return_residuals\":false}": {},
  "{\"x\":\"f32[131072,3840]\",\"labels\":\"i32[131072]\",\"w\":\"bf16[3840,262144]\",\"reduction\":\"mean\",\"return_residuals\":false}": {},
  "{\"x\":\"bf16[131072,3840]\",\"labels\":\"i32[131072]\",\"w\":\"bf16[3840,262144]\",\"reduction\":\"sum\",\"return_residuals\":false}": {},
  "{\"x\":\"f32[131072,3840]\",\"labels\":\"i32[131072]\",\"w\":\"bf16[3840,262144]\",\"reduction\":\"sum\",\"return_residuals\":false}": {},
  "{\"x\":\"bf16[1024,4096]\",\"labels\":\"i32[1024]\",\"w\":\"bf16[4096,128256]\",\"reduction\":\"mean\",\"return_residuals\":false}": {
    "{}": {
      "compile_time_ms": 1543.8842669827864,
      "lower_time_ms": 23.699791985563934,
      "evaluation_times_ms": [
        1.651201,
        1.657569,
        1.658209,
        1.6537609999999998,
        1.654721
      ],
      "metadata": {
        "peak_memory_mb": 1262.4648456573486
      }
    }
  },
  "{\"x\":\"f32[1024,4096]\",\"labels\":\"i32[1024]\",\"w\":\"bf16[4096,128256]\",\"reduction\":\"mean\",\"return_residuals\":false}": {
    "{}": {
      "compile_time_ms": 544.3743449868634,
      "lower_time_ms": 25.90103796683252,
      "evaluation_times_ms": [
        4.546653,
        4.555772,
        4.552316,
        4.5524759999999995,
        4.5551
      ],
      "metadata": {
        "peak_memory_mb": 3555.0039100646973
      }
    }
  },
  "{\"x\":\"bf16[1024,4096]\",\"labels\":\"i32[1024]\",\"w\":\"bf16[4096,128256]\",\"reduction\":\"sum\",\"return_residuals\":false}": {
    "{}": {
      "compile_time_ms": 459.98860499821603,
      "lower_time_ms": 14.834288973361254,
      "evaluation_times_ms": [
        1.6520249999999999,
        1.656152,
        1.656792,
        1.65692,
        1.6557039999999998
      ],
      "metadata": {
        "peak_memory_mb": 1262.4648456573486
      }
    }
  },
  "{\"x\":\"f32[1024,4096]\",\"labels\":\"i32[1024]\",\"w\":\"bf16[4096,128256]\",\"reduction\":\"sum\",\"return_residuals\":false}": {
    "{}": {
      "compile_time_ms": 2914.708015974611,
      "lower_time_ms": 137.0322189759463,
      "evaluation_times_ms": [
        4.5133209999999995,
        4.5180869999999995,
        4.509256,
        4.510088,
        4.521288
      ],
      "metadata": {
        "peak_memory_mb": 3555.0039100646973
      }
    }
  },
  "{\"x\":\"bf16[2048,4096]\",\"labels\":\"i32[2048]\",\"w\":\"bf16[4096,128256]\",\"reduction\":\"mean\",\"return_residuals\":false}": {
    "{}": {
      "compile_time_ms": 1476.4485269552097,
      "lower_time_ms": 24.38475692179054,
      "evaluation_times_ms": [
        3.173191,
        3.166214,
        3.183366,
        3.208999,
        3.220262
      ],
      "metadata": {
        "peak_memory_mb": 1551.0078144073486
      }
    }
  },
  "{\"x\":\"f32[2048,4096]\",\"labels\":\"i32[2048]\",\"w\":\"bf16[4096,128256]\",\"reduction\":\"mean\",\"return_residuals\":false}": {
    "{}": {
      "compile_time_ms": 1868.9173329621553,
      "lower_time_ms": 22.214150056242943,
      "evaluation_times_ms": [
        7.963408,
        7.962576,
        7.97848,
        8.116016,
        8.266767999999999
      ],
      "metadata": {
        "peak_memory_mb": 4072.0078163146973
      }
    }
  },
  "{\"x\":\"bf16[2048,4096]\",\"labels\":\"i32[2048]\",\"w\":\"bf16[4096,128256]\",\"reduction\":\"sum\",\"return_residuals\":false}": {
    "{}": {
      "compile_time_ms": 239.2205479554832,
      "lower_time_ms": 14.850018080323935,
      "evaluation_times_ms": [
        3.1854709999999997,
        3.178495,
        3.214974,
        3.206175,
        3.188542
      ],
      "metadata": {
        "peak_memory_mb": 1551.0078144073486
      }
    }
  },
  "{\"x\":\"f32[2048,4096]\",\"labels\":\"i32[2048]\",\"w\":\"bf16[4096,128256]\",\"reduction\":\"sum\",\"return_residuals\":false}": {
    "{}": {
      "compile_time_ms": 201.66654605418444,
      "lower_time_ms": 14.825733029283583,
      "evaluation_times_ms": [
        7.974663,
        7.980838,
        7.9922629999999995,
        8.000551,
        8.154534
      ],
      "metadata": {
        "peak_memory_mb": 4072.0078163146973
      }
    }
  },
  "{\"x\":\"bf16[4096,4096]\",\"labels\":\"i32[4096]\",\"w\":\"bf16[4096,128256]\",\"reduction\":\"mean\",\"return_residuals\":false}": {
    "{}": {
      "compile_time_ms": 3492.307711043395,
      "lower_time_ms": 126.24429899733514,
      "evaluation_times_ms": [
        6.411112,
        6.418087,
        6.421544,
        6.461031999999999,
        6.800712
      ],
      "metadata": {
        "peak_memory_mb": 2068.0156269073486
      }
    }
  },
  "{\"x\":\"f32[4096,4096]\",\"labels\":\"i32[4096]\",\"w\":\"bf16[4096,128256]\",\"reduction\":\"mean\",\"return_residuals\":false}": {
    "{}": {
      "compile_time_ms": 2867.4401229945943,
      "lower_time_ms": 22.709794924594462,
      "evaluation_times_ms": [
        15.083438999999998,
        15.102832000000001,
        15.272655,
        16.161648,
        16.200049
      ],
      "metadata": {
        "peak_memory_mb": 5106.015628814697
      }
    }
  },
  "{\"x\":\"bf16[4096,4096]\",\"labels\":\"i32[4096]\",\"w\":\"bf16[4096,128256]\",\"reduction\":\"sum\",\"return_residuals\":false}": {
    "{}": {
      "compile_time_ms": 244.64471207465976,
      "lower_time_ms": 14.859788003377616,
      "evaluation_times_ms": [
        6.46041,
        6.439098,
        6.464154,
        6.581531,
        6.933148
      ],
      "metadata": {
        "peak_memory_mb": 2068.0156269073486
      }
    }
  },
  "{\"x\":\"f32[4096,4096]\",\"labels\":\"i32[4096]\",\"w\":\"bf16[4096,128256]\",\"reduction\":\"sum\",\"return_residuals\":false}": {
    "{}": {
      "compile_time_ms": 181.21513503137976,
      "lower_time_ms": 14.278067043051124,
      "evaluation_times_ms": [
        15.094229,
        15.174293,
        15.150741,
        15.972857,
        16.289914
      ],
      "metadata": {
        "peak_memory_mb": 5106.015628814697
      }
    }
  },
  "{\"x\":\"bf16[16384,4096]\",\"labels\":\"i32[16384]\",\"w\":\"bf16[4096,128256]\",\"reduction\":\"mean\",\"return_residuals\":false}": {
    "{}": {
      "compile_time_ms": 6063.37191700004,
      "lower_time_ms": 24.166271090507507,
      "evaluation_times_ms": [
        25.621628,
        28.405319,
        28.874216,
        28.001797,
        28.901577
      ],
      "metadata": {
        "peak_memory_mb": 5170.062501907349
      }
    }
  },
  "{\"x\":\"f32[16384,4096]\",\"labels\":\"i32[16384]\",\"w\":\"bf16[4096,128256]\",\"reduction\":\"mean\",\"return_residuals\":false}": {
    "{}": {
      "compile_time_ms": 12060.25453004986,
      "lower_time_ms": 161.73389495816082,
      "evaluation_times_ms": [
        58.889183,
        61.998993,
        62.413774999999994,
        62.980717000000006,
        61.907793
      ],
      "metadata": {
        "peak_memory_mb": 11310.062503814697
      }
    }
  },
  "{\"x\":\"bf16[16384,4096]\",\"labels\":\"i32[16384]\",\"w\":\"bf16[4096,128256]\",\"reduction\":\"sum\",\"return_residuals\":false}": {
    "{}": {
      "compile_time_ms": 757.5623610173352,
      "lower_time_ms": 23.19709601579234,
      "evaluation_times_ms": [
        25.415816,
        27.565885,
        28.590585,
        28.680087999999998,
        28.724568
      ],
      "metadata": {
        "peak_memory_mb": 5170.062501907349
      }
    }
  },
  "{\"x\":\"f32[16384,4096]\",\"labels\":\"i32[16384]\",\"w\":\"bf16[4096,128256]\",\"reduction\":\"sum\",\"return_residuals\":false}": {
    "{}": {
      "compile_time_ms": 174.64129405561835,
      "lower_time_ms": 14.0832620090805,
      "evaluation_times_ms": [
        60.560511,
        62.637587999999994,
        62.728179,
        62.558164000000005,
        62.52818
      ],
      "metadata": {
        "peak_memory_mb": 11310.062503814697
      }
    }
  },
  "{\"x\":\"bf16[32768,4096]\",\"labels\":\"i32[32768]\",\"w\":\"bf16[4096,128256]\",\"reduction\":\"mean\",\"return_residuals\":false}": {
    "{}": {
      "compile_time_ms": 810.0893970113248,
      "lower_time_ms": 23.966504959389567,
      "evaluation_times_ms": [
        52.105105,
        56.983289,
        56.306236999999996,
        57.474424,
        56.716571
      ],
      "metadata": {
        "peak_memory_mb": 9336.875001907349
      }
    }
  },
  "{\"x\":\"f32[32768,4096]\",\"labels\":\"i32[32768]\",\"w\":\"bf16[4096,128256]\",\"reduction\":\"mean\",\"return_residuals\":false}": {
    "{}": {
      "compile_time_ms": 658.1400650320575,
      "lower_time_ms": 22.759007988497615,
      "evaluation_times_ms": [
        119.37269,
        124.16127300000001,
        124.534903,
        137.996624,
        125.936848
      ],
      "metadata": {
        "peak_memory_mb": 19582.125003814697
      }
    }
  },
  "{\"x\":\"bf16[32768,4096]\",\"labels\":\"i32[32768]\",\"w\":\"bf16[4096,128256]\",\"reduction\":\"sum\",\"return_residuals\":false}": {
    "{}": {
      "compile_time_ms": 2536.681595025584,
      "lower_time_ms": 155.2731900010258,
      "evaluation_times_ms": [
        51.550433,
        56.533297999999995,
        57.069264000000004,
        56.389683,
        56.082163
      ],
      "metadata": {
        "peak_memory_mb": 9336.875001907349
      }
    }
  },
  "{\"x\":\"f32[32768,4096]\",\"labels\":\"i32[32768]\",\"w\":\"bf16[4096,128256]\",\"reduction\":\"sum\",\"return_residuals\":false}": {
    "{}": {
      "compile_time_ms": 668.2577560422942,
      "lower_time_ms": 22.19055499881506,
      "evaluation_times_ms": [
        122.508086,
        124.757166,
        124.75092599999999,
        138.751902,
        127.78362
      ],
      "metadata": {
        "peak_memory_mb": 19582.125003814697
      }
    }
  },
  "{\"x\":\"bf16[131072,4096]\",\"labels\":\"i32[131072]\",\"w\":\"bf16[4096,128256]\",\"reduction\":\"mean\",\"return_residuals\":false}": {},
  "{\"x\":\"f32[131072,4096]\",\"labels\":\"i32[131072]\",\"w\":\"bf16[4096,128256]\",\"reduction\":\"mean\",\"return_residuals\":false}": {},
  "{\"x\":\"bf16[131072,4096]\",\"labels\":\"i32[131072]\",\"w\":\"bf16[4096,128256]\",\"reduction\":\"sum\",\"return_residuals\":false}": {},
  "{\"x\":\"f32[131072,4096]\",\"labels\":\"i32[131072]\",\"w\":\"bf16[4096,128256]\",\"reduction\":\"sum\",\"return_residuals\":false}": {},
  "{\"x\":\"bf16[4096,7168]\",\"labels\":\"i32[4096]\",\"w\":\"bf16[7168,128256]\",\"reduction\":\"mean\",\"return_residuals\":false}": {
    "{}": {
      "compile_time_ms": 813.0288349930197,
      "lower_time_ms": 24.297568015754223,
      "evaluation_times_ms": [
        10.648347000000001,
        10.710106000000001,
        10.857787,
        11.395706,
        11.54729
      ],
      "metadata": {
        "peak_memory_mb": 2843.5156269073486
      }
    }
  },
  "{\"x\":\"f32[4096,7168]\",\"labels\":\"i32[4096]\",\"w\":\"bf16[7168,128256]\",\"reduction\":\"mean\",\"return_residuals\":false}": {
    "{}": {
      "compile_time_ms": 563.1260669324547,
      "lower_time_ms": 22.289245971478522,
      "evaluation_times_ms": [
        22.005389,
        22.068877999999998,
        22.571756999999998,
        23.62622,
        22.769613
      ],
      "metadata": {
        "peak_memory_mb": 7408.515628814697
      }
    }
  },
  "{\"x\":\"bf16[4096,7168]\",\"labels\":\"i32[4096]\",\"w\":\"bf16[7168,128256]\",\"reduction\":\"sum\",\"return_residuals\":false}": {
    "{}": {
      "compile_time_ms": 247.0505660166964,
      "lower_time_ms": 16.51012198999524,
      "evaluation_times_ms": [
        10.669734,
        10.682405000000001,
        10.94407,
        11.505094,
        11.498629999999999
      ],
      "metadata": {
        "peak_memory_mb": 2843.5156269073486
      }
    }
  },
  "{\"x\":\"f32[4096,7168]\",\"labels\":\"i32[4096]\",\"w\":\"bf16[7168,128256]\",\"reduction\":\"sum\",\"return_residuals\":false}": {
    "{}": {
      "compile_time_ms": 177.9109250055626,
      "lower_time_ms": 14.035364030860364,
      "evaluation_times_ms": [
        22.000856,
        22.865303,
        23.076503000000002,
        22.702071,
        23.854071
      ],
      "metadata": {
        "peak_memory_mb": 7408.515628814697
      }
    }
  },
  "{\"x\":\"bf16[4096,4096]\",\"labels\":\"i32[4096]\",\"w\":\"bf16[4096,151936]\",\"reduction\":\"sum\",\"return_residuals\":false}": {
    "{}": {
      "compile_time_ms": 2059.4555209972896,
      "lower_time_ms": 26.634173991624266,
      "evaluation_times_ms": [
        7.676162,
        7.666402,
        7.688227,
        7.667106,
        7.959268
      ],
      "metadata": {
        "peak_memory_mb": 2438.0156269073486
      }
    }
  },
  "{\"x\":\"f32[4096,4096]\",\"labels\":\"i32[4096]\",\"w\":\"bf16[4096,151936]\",\"reduction\":\"sum\",\"return_residuals\":false}": {
    "{}": {
      "compile_time_ms": 3179.2786609730683,
      "lower_time_ms": 21.972253045532852,
      "evaluation_times_ms": [
        18.119508,
        18.18834,
        18.489813,
        19.68636,
        19.253239
      ],
      "metadata": {
        "peak_memory_mb": 6031.015628814697
      }
    }
  },
  "{\"x\":\"bf16[16384,4096]\",\"labels\":\"i32[16384]\",\"w\":\"bf16[4096,151936]\",\"reduction\":\"mean\",\"return_residuals\":false}": {
    "{}": {
      "compile_time_ms": 6909.151703002863,
      "lower_time_ms": 25.13444103533402,
      "evaluation_times_ms": [
        30.664659,
        33.717566,
        34.905154,
        33.378333,
        34.668449
      ],
      "metadata": {
        "peak_memory_mb": 6095.062501907349
      }
    }
  },
  "{\"x\":\"f32[16384,4096]\",\"labels\":\"i32[16384]\",\"w\":\"bf16[4096,151936]\",\"reduction\":\"mean\",\"return_residuals\":false}": {
    "{}": {
      "compile_time_ms": 589.3884249962866,
      "lower_time_ms": 22.670954989735037,
      "evaluation_times_ms": [
        73.052023,
        76.370755,
        76.293603,
        75.87030399999999,
        75.890465
      ],
      "metadata": {
        "peak_memory_mb": 13345.062503814697
      }
    }
  },
  "{\"x\":\"bf16[16384,4096]\",\"labels\":\"i32[16384]\",\"w\":\"bf16[4096,151936]\",\"reduction\":\"sum\",\"return_residuals\":false}": {
    "{}": {
      "compile_time_ms": 201.64869801374152,
      "lower_time_ms": 14.90995503263548,
      "evaluation_times_ms": [
        31.368777,
        31.427177,
        33.859276,
        35.024078,
        34.346893
      ],
      "metadata": {
        "peak_memory_mb": 6095.062501907349
      }
    }
  },
  "{\"x\":\"f32[16384,4096]\",\"labels\":\"i32[16384]\",\"w\":\"bf16[4096,151936]\",\"reduction\":\"sum\",\"return_residuals\":false}": {
    "{}": {
      "compile_time_ms": 648.7441880162805,
      "lower_time_ms": 24.786048918031156,
      "evaluation_times_ms": [
        74.45602099999999,
        74.744981,
        74.868566,
        74.780534,
        75.098742
      ],
      "metadata": {
        "peak_memory_mb": 13345.062503814697
      }
    }
  },
  "{\"x\":\"bf16[32768,4096]\",\"labels\":\"i32[32768]\",\"w\":\"bf16[4096,151936]\",\"reduction\":\"mean\",\"return_residuals\":false}": {
    "{}": {
      "compile_time_ms": 679.7028279397637,
      "lower_time_ms": 24.398577050305903,
      "evaluation_times_ms": [
        64.28048,
        68.672008,
        68.76004,
        68.234631,
        67.786855
      ],
      "metadata": {
        "peak_memory_mb": 10985.125001907349
      }
    }
  },
  "{\"x\":\"f32[32768,4096]\",\"labels\":\"i32[32768]\",\"w\":\"bf16[4096,151936]\",\"reduction\":\"mean\",\"return_residuals\":false}": {
    "{}": {
      "compile_time_ms": 587.2181649319828,
      "lower_time_ms": 23.70879496447742,
      "evaluation_times_ms": [
        146.667229,
        147.30428700000002,
        156.822354,
        155.810959,
        151.514727
      ],
      "metadata": {
        "peak_memory_mb": 23097.125003814697
      }
    }
  },
  "{\"x\":\"bf16[32768,4096]\",\"labels\":\"i32[32768]\",\"w\":\"bf16[4096,151936]\",\"reduction\":\"sum\",\"return_residuals\":false}": {
    "{}": {
      "compile_time_ms": 211.36598102748394,
      "lower_time_ms": 14.887396013364196,
      "evaluation_times_ms": [
        66.468407,
        68.357627,
        67.988571,
        67.618362,
        67.837114
      ],
      "metadata": {
        "peak_memory_mb": 10985.125001907349
      }
    }
  },
  "{\"x\":\"f32[32768,4096]\",\"labels\":\"i32[32768]\",\"w\":\"bf16[4096,151936]\",\"reduction\":\"sum\",\"return_residuals\":false}": {
    "{}": {
      "compile_time_ms": 209.98096698895097,
      "lower_time_ms": 14.473557006567717,
      "evaluation_times_ms": [
        146.81347,
        150.51706299999998,
        159.46546800000002,
        153.861839,
        151.080104
      ],
      "metadata": {
        "peak_memory_mb": 23097.125003814697
      }
    }
  },
  "{\"x\":\"bf16[131072,4096]\",\"labels\":\"i32[131072]\",\"w\":\"bf16[4096,151936]\",\"reduction\":\"mean\",\"return_residuals\":false}": {},
  "{\"x\":\"f32[131072,4096]\",\"labels\":\"i32[131072]\",\"w\":\"bf16[4096,151936]\",\"reduction\":\"mean\",\"return_residuals\":false}": {},
  "{\"x\":\"bf16[131072,4096]\",\"labels\":\"i32[131072]\",\"w\":\"bf16[4096,151936]\",\"reduction\":\"sum\",\"return_residuals\":false}": {},
  "{\"x\":\"f32[131072,4096]\",\"labels\":\"i32[131072]\",\"w\":\"bf16[4096,151936]\",\"reduction\":\"sum\",\"return_residuals\":false}": {},
  "{\"x\":\"bf16[1024,2560]\",\"labels\":\"i32[1024]\",\"w\":\"bf16[2560,262144]\",\"reduction\":\"mean\",\"return_residuals\":false}": {
    "{}": {
      "compile_time_ms": 554.810643021483,
      "lower_time_ms": 27.57164801005274,
      "evaluation_times_ms": [
        2.2875,
        2.288717,
        2.290381,
        2.286892,
        2.290924
      ],
      "metadata": {
        "peak_memory_mb": 1829.0039081573486
      }
    }
  },
  "{\"x\":\"f32[1024,2560]\",\"labels\":\"i32[1024]\",\"w\":\"bf16[2560,262144]\",\"reduction\":\"mean\",\"return_residuals\":false}": {
    "{}": {
      "compile_time_ms": 3275.8953190641478,
      "lower_time_ms": 160.82068299874663,
      "evaluation_times_ms": [
        6.248053,
        6.2596039999999995,
        6.257269,
        6.261717,
        6.2658130000000005
      ],
      "metadata": {
        "peak_memory_mb": 4906.003910064697
      }
    }
  },
  "{\"x\":\"bf16[1024,2560]\",\"labels\":\"i32[1024]\",\"w\":\"bf16[2560,262144]\",\"reduction\":\"sum\",\"return_residuals\":false}": {
    "{}": {
      "compile_time_ms": 1227.243155008182,
      "lower_time_ms": 26.771220029331744,
      "evaluation_times_ms": [
        2.3196820000000002,
        2.327586,
        2.321826,
        2.3236499999999998,
        2.320162
      ],
      "metadata": {
        "peak_memory_mb": 1829.0039081573486
      }
    }
  },
  "{\"x\":\"f32[1024,2560]\",\"labels\":\"i32[1024]\",\"w\":\"bf16[2560,262144]\",\"reduction\":\"sum\",\"return_residuals\":false}": {
    "{}": {
      "compile_time_ms": 176.12149403430521,
      "lower_time_ms": 20.144805079326034,
      "evaluation_times_ms": [
        6.266032,
        6.273583,
        6.280303,
        6.281008,
        6.279951
      ],
      "metadata": {
        "peak_memory_mb": 4906.003910064697
      }
    }
  },
  "{\"x\":\"bf16[2048,2560]\",\"labels\":\"i32[2048]\",\"w\":\"bf16[2560,262144]\",\"reduction\":\"mean\",\"return_residuals\":false}": {
    "{}": {
      "compile_time_ms": 578.3630650257692,
      "lower_time_ms": 27.350092073902488,
      "evaluation_times_ms": [
        4.559569,
        4.562481,
        4.571121,
        4.5664169999999995,
        4.617969
      ],
      "metadata": {
        "peak_memory_mb": 2346.0078144073486
      }
    }
  },
  "{\"x\":\"f32[2048,2560]\",\"labels\":\"i32[2048]\",\"w\":\"bf16[2560,262144]\",\"reduction\":\"mean\",\"return_residuals\":false}": {
    "{}": {
      "compile_time_ms": 576.1387449456379,
      "lower_time_ms": 26.123335934244096,
      "evaluation_times_ms": [
        11.189572,
        11.19882,
        11.21978,
        11.721093,
        11.690438
      ],
      "metadata": {
        "peak_memory_mb": 5940.007816314697
      }
    }
  },
  "{\"x\":\"bf16[2048,2560]\",\"labels\":\"i32[2048]\",\"w\":\"bf16[2560,262144]\",\"reduction\":\"sum\",\"return_residuals\":false}": {
    "{}": {
      "compile_time_ms": 2183.4954690421,
      "lower_time_ms": 139.35647101607174,
      "evaluation_times_ms": [
        4.54057,
        4.55177,
        4.5608900000000006,
        4.560506,
        4.580666
      ],
      "metadata": {
        "peak_memory_mb": 2346.0078144073486
      }
    }
  },
  "{\"x\":\"f32[2048,2560]\",\"labels\":\"i32[2048]\",\"w\":\"bf16[2560,262144]\",\"reduction\":\"sum\",\"return_residuals\":false}": {
    "{}": {
      "compile_time_ms": 600.8223720127717,
      "lower_time_ms": 25.094263954088092,
      "evaluation_times_ms": [
        11.215724,
        11.236971,
        11.248523,
        11.370316,
        11.421931
      ],
      "metadata": {
        "peak_memory_mb": 5940.007816314697
      }
    }
  },
  "{\"x\":\"bf16[4096,2560]\",\"labels\":\"i32[4096]\",\"w\":\"bf16[2560,262144]\",\"reduction\":\"mean\",\"return_residuals\":false}": {
    "{}": {
      "compile_time_ms": 665.296540944837,
      "lower_time_ms": 27.068005059845746,
      "evaluation_times_ms": [
        9.033402,
        9.055802,
        9.063962,
        9.067322,
        9.076858999999999
      ],
      "metadata": {
        "peak_memory_mb": 3380.0156269073486
      }
    }
  },
  "{\"x\":\"f32[4096,2560]\",\"labels\":\"i32[4096]\",\"w\":\"bf16[2560,262144]\",\"reduction\":\"mean\",\"return_residuals\":false}": {
    "{}": {
      "compile_time_ms": 645.0651759514585,
      "lower_time_ms": 27.012433973141015,
      "evaluation_times_ms": [
        20.985872,
        21.690768000000002,
        22.314449,
        21.563985000000002,
        21.778864
      ],
      "metadata": {
        "peak_memory_mb": 8008.015628814697
      }
    }
  },
  "{\"x\":\"bf16[4096,2560]\",\"labels\":\"i32[4096]\",\"w\":\"bf16[2560,262144]\",\"reduction\":\"sum\",\"return_residuals\":false}": {
    "{}": {
      "compile_time_ms": 170.3476469265297,
      "lower_time_ms": 18.587467027828097,
      "evaluation_times_ms": [
        9.041413,
        9.045221,
        9.065797,
        9.159782,
        9.157702
      ],
      "metadata": {
        "peak_memory_mb": 3380.0156269073486
      }
    }
  },
  "{\"x\":\"f32[4096,2560]\",\"labels\":\"i32[4096]\",\"w\":\"bf16[2560,262144]\",\"reduction\":\"sum\",\"return_residuals\":false}": {
    "{}": {
      "compile_time_ms": 4889.83537995955,
      "lower_time_ms": 129.0265930001624,
      "evaluation_times_ms": [
        20.736061,
        20.79366,
        21.985841999999998,
        22.370384,
        21.827124
      ],
      "metadata": {
        "peak_memory_mb": 8008.015628814697
      }
    }
  },
  "{\"x\":\"bf16[16384,2560]\",\"labels\":\"i32[16384]\",\"w\":\"bf16[2560,262144]\",\"reduction\":\"mean\",\"return_residuals\":false}": {
    "{}": {
      "compile_time_ms": 7170.82559800474,
      "lower_time_ms": 25.210390042047948,
      "evaluation_times_ms": [
        35.882761,
        40.224331,
        39.660078,
        39.535792,
        39.405489
      ],
      "metadata": {
        "peak_memory_mb": 9584.125001907349
      }
    }
  },
  "{\"x\":\"f32[16384,2560]\",\"labels\":\"i32[16384]\",\"w\":\"bf16[2560,262144]\",\"reduction\":\"mean\",\"return_residuals\":false}": {
    "{}": {
      "compile_time_ms": 12648.876378021669,
      "lower_time_ms": 22.089325007982552,
      "evaluation_times_ms": [
        84.858451,
        85.25099300000001,
        85.994381,
        85.408721,
        85.695791
      ],
      "metadata": {
        "peak_memory_mb": 20416.062503814697
      }
    }
  },
  "{\"x\":\"bf16[16384,2560]\",\"labels\":\"i32[16384]\",\"w\":\"bf16[2560,262144]\",\"reduction\":\"sum\",\"return_residuals\":false}": {
    "{}": {
      "compile_time_ms": 165.37015698850155,
      "lower_time_ms": 14.692139986436814,
      "evaluation_times_ms": [
        35.904813000000004,
        38.734809,
        38.911256,
        38.967032,
        38.93596
      ],
      "metadata": {
        "peak_memory_mb": 9584.125001907349
      }
    }
  },
  "{\"x\":\"f32[16384,2560]\",\"labels\":\"i32[16384]\",\"w\":\"bf16[2560,262144]\",\"reduction\":\"sum\",\"return_residuals\":false}": {
    "{}": {
      "compile_time_ms": 170.39856500923634,
      "lower_time_ms": 14.859138987958431,
      "evaluation_times_ms": [
        82.84601699999999,
        85.450738,
        85.656464,
        85.820495,
        91.54929100000001
      ],
      "metadata": {
        "peak_memory_mb": 20416.062503814697
      }
    }
  },
  "{\"x\":\"bf16[32768,2560]\",\"labels\":\"i32[32768]\",\"w\":\"bf16[2560,262144]\",\"reduction\":\"mean\",\"return_residuals\":false}": {
    "{}": {
      "compile_time_ms": 16131.481284013717,
      "lower_time_ms": 120.34833600046113,
      "evaluation_times_ms": [
        71.401548,
        79.018645,
        78.346264,
        78.595062,
        78.626582
      ],
      "metadata": {
        "peak_memory_mb": 17888.25000190735
      }
    }
  },
  "{\"x\":\"f32[32768,2560]\",\"labels\":\"i32[32768]\",\"w\":\"bf16[2560,262144]\",\"reduction\":\"mean\",\"return_residuals\":false}": {},
  "{\"x\":\"bf16[32768,2560]\",\"labels\":\"i32[32768]\",\"w\":\"bf16[2560,262144]\",\"reduction\":\"sum\",\"return_residuals\":false}": {
    "{}": {
      "compile_time_ms": 171.56297600013204,
      "lower_time_ms": 14.637504995334893,
      "evaluation_times_ms": [
        74.497379,
        78.43359,
        78.006808,
        78.537526,
        78.94382900000001
      ],
      "metadata": {
        "peak_memory_mb": 17888.25000190735
      }
    }
  },
  "{\"x\":\"f32[32768,2560]\",\"labels\":\"i32[32768]\",\"w\":\"bf16[2560,262144]\",\"reduction\":\"sum\",\"return_residuals\":false}": {},
  "{\"x\":\"bf16[131072,2560]\",\"labels\":\"i32[131072]\",\"w\":\"bf16[2560,262144]\",\"reduction\":\"mean\",\"return_residuals\":false}": {},
  "{\"x\":\"f32[131072,2560]\",\"labels\":\"i32[131072]\",\"w\":\"bf16[2560,262144]\",\"reduction\":\"mean\",\"return_residuals\":false}": {},
  "{\"x\":\"bf16[131072,2560]\",\"labels\":\"i32[131072]\",\"w\":\"bf16[2560,262144]\",\"reduction\":\"sum\",\"return_residuals\":false}": {},
  "{\"x\":\"f32[131072,2560]\",\"labels\":\"i32[131072]\",\"w\":\"bf16[2560,262144]\",\"reduction\":\"sum\",\"return_residuals\":false}": {},
  "{\"x\":\"bf16[1024,3840]\",\"labels\":\"i32[1024]\",\"w\":\"bf16[3840,262144]\",\"reduction\":\"mean\",\"return_residuals\":false}": {
    "{}": {
      "compile_time_ms": 570.1457129907794,
      "lower_time_ms": 31.953329977113754,
      "evaluation_times_ms": [
        3.12999,
        3.1283250000000002,
        3.130118,
        3.1335729999999997,
        3.138086
      ],
      "metadata": {
        "peak_memory_mb": 2471.5039081573486
      }
    }
  },
  "{\"x\":\"f32[1024,3840]\",\"labels\":\"i32[1024]\",\"w\":\"bf16[3840,262144]\",\"reduction\":\"mean\",\"return_residuals\":false}": {
    "{}": {
      "compile_time_ms": 584.2124880291522,
      "lower_time_ms": 28.57355197193101,
      "evaluation_times_ms": [
        8.793715,
        8.808083,
        8.812019,
        8.818899,
        8.823187
      ],
      "metadata": {
        "peak_memory_mb": 6831.003910064697
      }
    }
  }
}
