{
  "{\"residuals\":[\"bf16[1024]\"],\"out\":\"bf16[]\",\"dout\":\"bf16[]\",\"x\":\"bf16[1024,4096]\",\"labels\":\"i32[1024]\",\"w\":\"bf16[4096,151936]\",\"reduction\":\"mean\",\"return_residuals\":false}": {
    "{}": {
      "compile_time_ms": 178.13598294742405,
      "lower_time_ms": 26.206300011835992,
      "evaluation_times_ms": [
        5.739794,
        5.7413609999999995,
        5.741681,
        5.749426,
        5.833649
      ],
      "metadata": {
        "peak_memory_mb": 2718.7597942352295
      }
    }
  },
  "{\"residuals\":[\"f32[1024]\"],\"out\":\"f32[]\",\"dout\":\"f32[]\",\"x\":\"f32[1024,4096]\",\"labels\":\"i32[1024]\",\"w\":\"bf16[4096,151936]\",\"reduction\":\"mean\",\"return_residuals\":false}": {
    "{}": {
      "compile_time_ms": 126.02932192385197,
      "lower_time_ms": 21.93865808658302,
      "evaluation_times_ms": [
        15.339973,
        15.620324,
        16.388227,
        15.497028,
        15.37738
      ],
      "metadata": {
        "peak_memory_mb": 4780.011749267578
      }
    }
  },
  "{\"residuals\":[\"bf16[1024]\"],\"out\":\"bf16[]\",\"dout\":\"bf16[]\",\"x\":\"bf16[1024,4096]\",\"labels\":\"i32[1024]\",\"w\":\"bf16[4096,151936]\",\"reduction\":\"sum\",\"return_residuals\":false}": {
    "{}": {
      "compile_time_ms": 129.07718599308282,
      "lower_time_ms": 17.050550086423755,
      "evaluation_times_ms": [
        5.7347339999999996,
        5.73403,
        5.7418059999999995,
        5.755438,
        5.752813
      ],
      "metadata": {
        "peak_memory_mb": 2718.759792327881
      }
    }
  },
  "{\"residuals\":[\"f32[1024]\"],\"out\":\"f32[]\",\"dout\":\"f32[]\",\"x\":\"f32[1024,4096]\",\"labels\":\"i32[1024]\",\"w\":\"bf16[4096,151936]\",\"reduction\":\"sum\",\"return_residuals\":false}": {
    "{}": {
      "compile_time_ms": 131.03169994428754,
      "lower_time_ms": 17.040748964063823,
      "evaluation_times_ms": [
        15.673339,
        15.436251,
        15.893787,
        16.08825,
        15.472027
      ],
      "metadata": {
        "peak_memory_mb": 4780.011749267578
      }
    }
  },
  "{\"residuals\":[\"bf16[2048]\"],\"out\":\"bf16[]\",\"dout\":\"bf16[]\",\"x\":\"bf16[2048,4096]\",\"labels\":\"i32[2048]\",\"w\":\"bf16[4096,151936]\",\"reduction\":\"mean\",\"return_residuals\":false}": {
    "{}": {
      "compile_time_ms": 138.9078659703955,
      "lower_time_ms": 23.058494902215898,
      "evaluation_times_ms": [
        10.423276,
        10.462124,
        10.47134,
        10.84014,
        10.881995
      ],
      "metadata": {
        "peak_memory_mb": 3031.5195598602295
      }
    }
  },
  "{\"residuals\":[\"f32[2048]\"],\"out\":\"f32[]\",\"dout\":\"f32[]\",\"x\":\"f32[2048,4096]\",\"labels\":\"i32[2048]\",\"w\":\"bf16[4096,151936]\",\"reduction\":\"mean\",\"return_residuals\":false}": {
    "{}": {
      "compile_time_ms": 5207.0769789861515,
      "lower_time_ms": 26.51085000252351,
      "evaluation_times_ms": [
        25.932747,
        26.643503,
        26.382253,
        26.888656,
        26.878129
      ],
      "metadata": {
        "peak_memory_mb": 5999.023468017578
      }
    }
  },
  "{\"residuals\":[\"bf16[2048]\"],\"out\":\"bf16[]\",\"dout\":\"bf16[]\",\"x\":\"bf16[2048,4096]\",\"labels\":\"i32[2048]\",\"w\":\"bf16[4096,151936]\",\"reduction\":\"sum\",\"return_residuals\":false}": {
    "{}": {
      "compile_time_ms": 4056.584150996059,
      "lower_time_ms": 20.58539097197354,
      "evaluation_times_ms": [
        10.518004000000001,
        10.552372,
        10.632404,
        11.361559999999999,
        11.36716
      ],
      "metadata": {
        "peak_memory_mb": 3031.519557952881
      }
    }
  },
  "{\"residuals\":[\"f32[2048]\"],\"out\":\"f32[]\",\"dout\":\"f32[]\",\"x\":\"f32[2048,4096]\",\"labels\":\"i32[2048]\",\"w\":\"bf16[4096,151936]\",\"reduction\":\"sum\",\"return_residuals\":false}": {
    "{}": {
      "compile_time_ms": 4999.920589965768,
      "lower_time_ms": 16.416457016021013,
      "evaluation_times_ms": [
        26.019655,
        26.669194,
        26.717354,
        26.724106,
        26.815564
      ],
      "metadata": {
        "peak_memory_mb": 5999.023468017578
      }
    }
  },
  "{\"residuals\":[\"bf16[4096]\"],\"out\":\"bf16[]\",\"dout\":\"bf16[]\",\"x\":\"bf16[4096,4096]\",\"labels\":\"i32[4096]\",\"w\":\"bf16[4096,151936]\",\"reduction\":\"mean\",\"return_residuals\":false}": {
    "{}": {
      "compile_time_ms": 5096.582256956026,
      "lower_time_ms": 19.6916539571248,
      "evaluation_times_ms": [
        20.207478,
        21.130396,
        21.633759,
        21.986272,
        21.818752
      ],
      "metadata": {
        "peak_memory_mb": 3657.0390911102295
      }
    }
  },
  "{\"residuals\":[\"f32[4096]\"],\"out\":\"f32[]\",\"dout\":\"f32[]\",\"x\":\"f32[4096,4096]\",\"labels\":\"i32[4096]\",\"w\":\"bf16[4096,151936]\",\"reduction\":\"mean\",\"return_residuals\":false}": {
    "{}": {
      "compile_time_ms": 9558.358082023915,
      "lower_time_ms": 18.59366294229403,
      "evaluation_times_ms": [
        50.257308,
        53.748405,
        53.140816,
        53.716212,
        52.299082
      ],
      "metadata": {
        "peak_memory_mb": 8437.046905517578
      }
    }
  },
  "{\"residuals\":[\"bf16[1024]\"],\"out\":\"bf16[]\",\"dout\":\"bf16[]\",\"x\":\"bf16[1024,3840]\",\"labels\":\"i32[1024]\",\"w\":\"bf16[3840,262144]\",\"reduction\":\"sum\",\"return_residuals\":false}": {
    "{}": {
      "compile_time_ms": 3386.8722489569336,
      "lower_time_ms": 26.41155297169462,
      "evaluation_times_ms": [
        9.467926,
        9.491221999999999,
        9.564278999999999,
        9.872151,
        9.85071
      ],
      "metadata": {
        "peak_memory_mb": 4399.009792327881
      }
    }
  },
  "{\"residuals\":[\"f32[1024]\"],\"out\":\"f32[]\",\"dout\":\"f32[]\",\"x\":\"f32[1024,3840]\",\"labels\":\"i32[1024]\",\"w\":\"bf16[3840,262144]\",\"reduction\":\"sum\",\"return_residuals\":false}": {
    "{}": {
      "compile_time_ms": 4405.391014995985,
      "lower_time_ms": 22.497617988847196,
      "evaluation_times_ms": [
        24.038682,
        24.056826,
        23.997273999999997,
        24.688635,
        24.153339
      ],
      "metadata": {
        "peak_memory_mb": 7838.011749267578
      }
    }
  },
  "{\"residuals\":[\"bf16[2048]\"],\"out\":\"bf16[]\",\"dout\":\"bf16[]\",\"x\":\"bf16[2048,3840]\",\"labels\":\"i32[2048]\",\"w\":\"bf16[3840,262144]\",\"reduction\":\"mean\",\"return_residuals\":false}": {
    "{}": {
      "compile_time_ms": 5433.911188971251,
      "lower_time_ms": 24.07299994956702,
      "evaluation_times_ms": [
        17.254788,
        17.410757,
        18.287209,
        18.721993,
        18.584234
      ],
      "metadata": {
        "peak_memory_mb": 4926.0195598602295
      }
    }
  },
  "{\"residuals\":[\"f32[2048]\"],\"out\":\"f32[]\",\"dout\":\"f32[]\",\"x\":\"f32[2048,3840]\",\"labels\":\"i32[2048]\",\"w\":\"bf16[3840,262144]\",\"reduction\":\"mean\",\"return_residuals\":false}": {
    "{}": {
      "compile_time_ms": 7967.429471958894,
      "lower_time_ms": 24.639923009090126,
      "evaluation_times_ms": [
        42.891537,
        44.753976,
        44.652376000000004,
        44.129398,
        45.432826999999996
      ],
      "metadata": {
        "peak_memory_mb": 9916.023468017578
      }
    }
  },
  "{\"residuals\":[\"bf16[2048]\"],\"out\":\"bf16[]\",\"dout\":\"bf16[]\",\"x\":\"bf16[2048,3840]\",\"labels\":\"i32[2048]\",\"w\":\"bf16[3840,262144]\",\"reduction\":\"sum\",\"return_residuals\":false}": {
    "{}": {
      "compile_time_ms": 5399.903220997658,
      "lower_time_ms": 17.99192000180483,
      "evaluation_times_ms": [
        17.305444,
        17.841862,
        18.977611,
        19.1755,
        19.030219
      ],
      "metadata": {
        "peak_memory_mb": 4926.019557952881
      }
    }
  },
  "{\"residuals\":[\"f32[2048]\"],\"out\":\"f32[]\",\"dout\":\"f32[]\",\"x\":\"f32[2048,3840]\",\"labels\":\"i32[2048]\",\"w\":\"bf16[3840,262144]\",\"reduction\":\"sum\",\"return_residuals\":false}": {
    "{}": {
      "compile_time_ms": 7769.337282981724,
      "lower_time_ms": 26.40749199781567,
      "evaluation_times_ms": [
        43.017178,
        45.298615,
        44.420441000000004,
        45.465783,
        44.225913
      ],
      "metadata": {
        "peak_memory_mb": 9916.023468017578
      }
    }
  },
  "{\"residuals\":[\"bf16[4096]\"],\"out\":\"bf16[]\",\"dout\":\"bf16[]\",\"x\":\"bf16[4096,3840]\",\"labels\":\"i32[4096]\",\"w\":\"bf16[3840,262144]\",\"reduction\":\"mean\",\"return_residuals\":false}": {
    "{}": {
      "compile_time_ms": 7787.274517992046,
      "lower_time_ms": 24.64138501090929,
      "evaluation_times_ms": [
        33.057426,
        36.171151,
        36.47899,
        37.666412,
        36.761646
      ],
      "metadata": {
        "peak_memory_mb": 7996.039089202881
      }
    }
  },
  "{\"residuals\":[\"f32[4096]\"],\"out\":\"f32[]\",\"dout\":\"f32[]\",\"x\":\"f32[4096,3840]\",\"labels\":\"i32[4096]\",\"w\":\"bf16[3840,262144]\",\"reduction\":\"mean\",\"return_residuals\":false}": {
    "{}": {
      "compile_time_ms": 15212.059780023992,
      "lower_time_ms": 24.22388200648129,
      "evaluation_times_ms": [
        87.358464,
        88.87872,
        88.029568,
        87.286241,
        88.033152
      ],
      "metadata": {
        "peak_memory_mb": 14072.046905517578
      }
    }
  },
  "{\"residuals\":[\"bf16[4096]\"],\"out\":\"bf16[]\",\"dout\":\"bf16[]\",\"x\":\"bf16[4096,3840]\",\"labels\":\"i32[4096]\",\"w\":\"bf16[3840,262144]\",\"reduction\":\"sum\",\"return_residuals\":false}": {
    "{}": {
      "compile_time_ms": 7787.143601977732,
      "lower_time_ms": 19.016357022337615,
      "evaluation_times_ms": [
        33.462177,
        37.02253,
        36.32701,
        35.275169999999996,
        36.44813
      ],
      "metadata": {
        "peak_memory_mb": 7996.039089202881
      }
    }
  },
  "{\"residuals\":[\"f32[4096]\"],\"out\":\"f32[]\",\"dout\":\"f32[]\",\"x\":\"f32[4096,3840]\",\"labels\":\"i32[4096]\",\"w\":\"bf16[3840,262144]\",\"reduction\":\"sum\",\"return_residuals\":false}": {
    "{}": {
      "compile_time_ms": 15170.110674982425,
      "lower_time_ms": 18.84347398299724,
      "evaluation_times_ms": [
        86.151533,
        87.317357,
        87.521485,
        86.978349,
        91.80881600000001
      ],
      "metadata": {
        "peak_memory_mb": 14072.046905517578
      }
    }
  },
  "{\"residuals\":[\"bf16[16384]\"],\"out\":\"bf16[]\",\"dout\":\"bf16[]\",\"x\":\"bf16[16384,3840]\",\"labels\":\"i32[16384]\",\"w\":\"bf16[3840,262144]\",\"reduction\":\"mean\",\"return_residuals\":false}": {
    "{}": {
      "compile_time_ms": 163.62134902738035,
      "lower_time_ms": 22.70164096262306,
      "evaluation_times_ms": [
        136.457981,
        142.98515,
        143.006495,
        152.725313,
        141.625598
      ],
      "metadata": {
        "peak_memory_mb": 20464.15627670288
      }
    }
  },
  "{\"residuals\":[\"f32[16384]\"],\"out\":\"f32[]\",\"dout\":\"f32[]\",\"x\":\"f32[16384,3840]\",\"labels\":\"i32[16384]\",\"w\":\"bf16[3840,262144]\",\"reduction\":\"mean\",\"return_residuals\":false}": {
    "{}": {
      "compile_time_ms": 140.30129194725305,
      "lower_time_ms": 18.685646005906165,
      "evaluation_times_ms": [
        326.948042,
        348.448818,
        356.464436,
        345.74344099999996,
        347.88469
      ],
      "metadata": {
        "peak_memory_mb": 39008.18753051758
      }
    }
  },
  "{\"residuals\":[\"bf16[16384]\"],\"out\":\"bf16[]\",\"dout\":\"bf16[]\",\"x\":\"bf16[16384,3840]\",\"labels\":\"i32[16384]\",\"w\":\"bf16[3840,262144]\",\"reduction\":\"sum\",\"return_residuals\":false}": {
    "{}": {
      "compile_time_ms": 107.52834496088326,
      "lower_time_ms": 12.937329011037946,
      "evaluation_times_ms": [
        137.887503,
        142.51793800000002,
        143.773427,
        150.608119,
        143.772883
      ],
      "metadata": {
        "peak_memory_mb": 20464.15627670288
      }
    }
  },
  "{\"residuals\":[\"f32[16384]\"],\"out\":\"f32[]\",\"dout\":\"f32[]\",\"x\":\"f32[16384,3840]\",\"labels\":\"i32[16384]\",\"w\":\"bf16[3840,262144]\",\"reduction\":\"sum\",\"return_residuals\":false}": {
    "{}": {
      "compile_time_ms": 226.64339106995612,
      "lower_time_ms": 13.915500021539629,
      "evaluation_times_ms": [
        333.060533,
        351.439205,
        354.064903,
        348.374114,
        363.76126300000004
      ],
      "metadata": {
        "peak_memory_mb": 39008.18753051758
      }
    }
  },
  "{\"residuals\":[\"bf16[32768]\"],\"out\":\"bf16[]\",\"dout\":\"bf16[]\",\"x\":\"bf16[32768,3840]\",\"labels\":\"i32[32768]\",\"w\":\"bf16[3840,262144]\",\"reduction\":\"mean\",\"return_residuals\":false}": {
    "{}": {
      "compile_time_ms": 155.5958209792152,
      "lower_time_ms": 18.352780025452375,
      "evaluation_times_ms": [
        274.101204,
        298.649616,
        288.852774,
        286.907522,
        292.344394
      ],
      "metadata": {
        "peak_memory_mb": 37088.31252670288
      }
    }
  },
  "{\"residuals\":[\"f32[32768]\"],\"out\":\"f32[]\",\"dout\":\"f32[]\",\"x\":\"f32[32768,3840]\",\"labels\":\"i32[32768]\",\"w\":\"bf16[3840,262144]\",\"reduction\":\"mean\",\"return_residuals\":false}": {},
  "{\"residuals\":[\"bf16[32768]\"],\"out\":\"bf16[]\",\"dout\":\"bf16[]\",\"x\":\"bf16[32768,3840]\",\"labels\":\"i32[32768]\",\"w\":\"bf16[3840,262144]\",\"reduction\":\"sum\",\"return_residuals\":false}": {
    "{}": {
      "compile_time_ms": 136.49426703341305,
      "lower_time_ms": 17.25246600108221,
      "evaluation_times_ms": [
        280.13858,
        304.53347,
        283.104445,
        294.268446,
        299.056652
      ],
      "metadata": {
        "peak_memory_mb": 37088.31252670288
      }
    }
  },
  "{\"residuals\":[\"f32[32768]\"],\"out\":\"f32[]\",\"dout\":\"f32[]\",\"x\":\"f32[32768,3840]\",\"labels\":\"i32[32768]\",\"w\":\"bf16[3840,262144]\",\"reduction\":\"sum\",\"return_residuals\":false}": {},
  "{\"residuals\":[\"bf16[131072]\"],\"out\":\"bf16[]\",\"dout\":\"bf16[]\",\"x\":\"bf16[131072,3840]\",\"labels\":\"i32[131072]\",\"w\":\"bf16[3840,262144]\",\"reduction\":\"mean\",\"return_residuals\":false}": {},
  "{\"residuals\":[\"f32[131072]\"],\"out\":\"f32[]\",\"dout\":\"f32[]\",\"x\":\"f32[131072,3840]\",\"labels\":\"i32[131072]\",\"w\":\"bf16[3840,262144]\",\"reduction\":\"mean\",\"return_residuals\":false}": {},
  "{\"residuals\":[\"bf16[131072]\"],\"out\":\"bf16[]\",\"dout\":\"bf16[]\",\"x\":\"bf16[131072,3840]\",\"labels\":\"i32[131072]\",\"w\":\"bf16[3840,262144]\",\"reduction\":\"sum\",\"return_residuals\":false}": {},
  "{\"residuals\":[\"f32[131072]\"],\"out\":\"f32[]\",\"dout\":\"f32[]\",\"x\":\"f32[131072,3840]\",\"labels\":\"i32[131072]\",\"w\":\"bf16[3840,262144]\",\"reduction\":\"sum\",\"return_residuals\":false}": {},
  "{\"residuals\":[\"bf16[1024]\"],\"out\":\"bf16[]\",\"dout\":\"bf16[]\",\"x\":\"bf16[1024,4096]\",\"labels\":\"i32[1024]\",\"w\":\"bf16[4096,128256]\",\"reduction\":\"mean\",\"return_residuals\":false}": {
    "{}": {
      "compile_time_ms": 2738.5228170314804,
      "lower_time_ms": 19.16916505433619,
      "evaluation_times_ms": [
        4.836992,
        4.846016,
        4.849984,
        4.853632,
        4.868992
      ],
      "metadata": {
        "peak_memory_mb": 2302.5097942352295
      }
    }
  },
  "{\"residuals\":[\"f32[1024]\"],\"out\":\"f32[]\",\"dout\":\"f32[]\",\"x\":\"f32[1024,4096]\",\"labels\":\"i32[1024]\",\"w\":\"bf16[4096,128256]\",\"reduction\":\"mean\",\"return_residuals\":false}": {
    "{}": {
      "compile_time_ms": 2740.7597829587758,
      "lower_time_ms": 22.159328102134168,
      "evaluation_times_ms": [
        13.618817,
        13.759937,
        13.011137,
        13.292289,
        13.790529
      ],
      "metadata": {
        "peak_memory_mb": 4040.011749267578
      }
    }
  },
  "{\"residuals\":[\"bf16[1024]\"],\"out\":\"bf16[]\",\"dout\":\"bf16[]\",\"x\":\"bf16[1024,4096]\",\"labels\":\"i32[1024]\",\"w\":\"bf16[4096,128256]\",\"reduction\":\"sum\",\"return_residuals\":false}": {
    "{}": {
      "compile_time_ms": 2615.7051600748673,
      "lower_time_ms": 12.93427194468677,
      "evaluation_times_ms": [
        4.854620000000001,
        4.869052,
        4.859005,
        4.864893,
        4.922396
      ],
      "metadata": {
        "peak_memory_mb": 2302.509792327881
      }
    }
  },
  "{\"residuals\":[\"f32[1024]\"],\"out\":\"f32[]\",\"dout\":\"f32[]\",\"x\":\"f32[1024,4096]\",\"labels\":\"i32[1024]\",\"w\":\"bf16[4096,128256]\",\"reduction\":\"sum\",\"return_residuals\":false}": {
    "{}": {
      "compile_time_ms": 2622.7723920019343,
      "lower_time_ms": 21.062302985228598,
      "evaluation_times_ms": [
        12.805242,
        13.145209999999999,
        13.439419000000001,
        12.950043,
        13.190139
      ],
      "metadata": {
        "peak_memory_mb": 4040.011749267578
      }
    }
  },
  "{\"residuals\":[\"bf16[2048]\"],\"out\":\"bf16[]\",\"dout\":\"bf16[]\",\"x\":\"bf16[2048,4096]\",\"labels\":\"i32[2048]\",\"w\":\"bf16[4096,128256]\",\"reduction\":\"mean\",\"return_residuals\":false}": {
    "{}": {
      "compile_time_ms": 3684.0407089330256,
      "lower_time_ms": 19.290434080176055,
      "evaluation_times_ms": [
        8.691127,
        8.722934,
        8.724726,
        8.897591,
        9.322840000000001
      ],
      "metadata": {
        "peak_memory_mb": 2569.0195598602295
      }
    }
  },
  "{\"residuals\":[\"f32[2048]\"],\"out\":\"f32[]\",\"dout\":\"f32[]\",\"x\":\"f32[2048,4096]\",\"labels\":\"i32[2048]\",\"w\":\"bf16[4096,128256]\",\"reduction\":\"mean\",\"return_residuals\":false}": {
    "{}": {
      "compile_time_ms": 4426.654423004948,
      "lower_time_ms": 18.5825900407508,
      "evaluation_times_ms": [
        21.873237,
        22.100438,
        22.402199,
        22.455447,
        22.514743
      ],
      "metadata": {
        "peak_memory_mb": 5074.023468017578
      }
    }
  },
  "{\"residuals\":[\"bf16[2048]\"],\"out\":\"bf16[]\",\"dout\":\"bf16[]\",\"x\":\"bf16[2048,4096]\",\"labels\":\"i32[2048]\",\"w\":\"bf16[4096,128256]\",\"reduction\":\"sum\",\"return_residuals\":false}": {
    "{}": {
      "compile_time_ms": 3714.1266390681267,
      "lower_time_ms": 14.559806091710925,
      "evaluation_times_ms": [
        8.681742,
        8.755053,
        8.850734,
        9.237135,
        9.208878
      ],
      "metadata": {
        "peak_memory_mb": 2569.019557952881
      }
    }
  },
  "{\"residuals\":[\"f32[2048]\"],\"out\":\"f32[]\",\"dout\":\"f32[]\",\"x\":\"f32[2048,4096]\",\"labels\":\"i32[2048]\",\"w\":\"bf16[4096,128256]\",\"reduction\":\"sum\",\"return_residuals\":false}": {
    "{}": {
      "compile_time_ms": 4467.450859025121,
      "lower_time_ms": 13.08141101617366,
      "evaluation_times_ms": [
        21.939868,
        21.952092,
        22.887616,
        22.514942,
        22.50675
      ],
      "metadata": {
        "peak_memory_mb": 5074.023468017578
      }
    }
  },
  "{\"residuals\":[\"bf16[4096]\"],\"out\":\"bf16[]\",\"dout\":\"bf16[]\",\"x\":\"bf16[4096,4096]\",\"labels\":\"i32[4096]\",\"w\":\"bf16[4096,128256]\",\"reduction\":\"mean\",\"return_residuals\":false}": {
    "{}": {
      "compile_time_ms": 4287.455884972587,
      "lower_time_ms": 21.679884986951947,
      "evaluation_times_ms": [
        17.027487,
        17.087135,
        19.056967,
        18.927686,
        18.751461
      ],
      "metadata": {
        "peak_memory_mb": 3102.0390911102295
      }
    }
  },
  "{\"residuals\":[\"f32[4096]\"],\"out\":\"f32[]\",\"dout\":\"f32[]\",\"x\":\"f32[4096,4096]\",\"labels\":\"i32[4096]\",\"w\":\"bf16[4096,128256]\",\"reduction\":\"mean\",\"return_residuals\":false}": {
    "{}": {
      "compile_time_ms": 8179.026852012612,
      "lower_time_ms": 18.946351017802954,
      "evaluation_times_ms": [
        42.898983,
        45.6789,
        45.437971,
        44.668911,
        45.168274000000004
      ],
      "metadata": {
        "peak_memory_mb": 7142.046905517578
      }
    }
  },
  "{\"residuals\":[\"bf16[4096]\"],\"out\":\"bf16[]\",\"dout\":\"bf16[]\",\"x\":\"bf16[4096,4096]\",\"labels\":\"i32[4096]\",\"w\":\"bf16[4096,128256]\",\"reduction\":\"sum\",\"return_residuals\":false}": {
    "{}": {
      "compile_time_ms": 4262.1612480143085,
      "lower_time_ms": 12.730877962894738,
      "evaluation_times_ms": [
        16.990117,
        17.842825,
        18.56395,
        18.745423000000002,
        18.738383
      ],
      "metadata": {
        "peak_memory_mb": 3102.039089202881
      }
    }
  },
  "{\"residuals\":[\"f32[4096]\"],\"out\":\"f32[]\",\"dout\":\"f32[]\",\"x\":\"f32[4096,4096]\",\"labels\":\"i32[4096]\",\"w\":\"bf16[4096,128256]\",\"reduction\":\"sum\",\"return_residuals\":false}": {
    "{}": {
      "compile_time_ms": 8064.398551010527,
      "lower_time_ms": 14.159433078020811,
      "evaluation_times_ms": [
        42.131741,
        45.844528,
        44.753448999999996,
        45.779087000000004,
        44.616137
      ],
      "metadata": {
        "peak_memory_mb": 7142.046905517578
      }
    }
  },
  "{\"residuals\":[\"bf16[16384]\"],\"out\":\"bf16[]\",\"dout\":\"bf16[]\",\"x\":\"bf16[16384,4096]\",\"labels\":\"i32[16384]\",\"w\":\"bf16[4096,128256]\",\"reduction\":\"mean\",\"return_residuals\":false}": {
    "{}": {
      "compile_time_ms": 15441.164304036647,
      "lower_time_ms": 18.25813704635948,
      "evaluation_times_ms": [
        72.04223999999999,
        74.640046,
        73.470119,
        75.689076,
        75.547315
      ],
      "metadata": {
        "peak_memory_mb": 10276.15627670288
      }
    }
  },
  "{\"residuals\":[\"f32[16384]\"],\"out\":\"f32[]\",\"dout\":\"f32[]\",\"x\":\"f32[16384,4096]\",\"labels\":\"i32[16384]\",\"w\":\"bf16[4096,128256]\",\"reduction\":\"mean\",\"return_residuals\":false}": {
    "{}": {
      "compile_time_ms": 21992.358500952832,
      "lower_time_ms": 22.502899984829128,
      "evaluation_times_ms": [
        176.937153,
        180.769429,
        191.43186300000002,
        182.890256,
        187.406947
      ],
      "metadata": {
        "peak_memory_mb": 19550.187530517578
      }
    }
  },
  "{\"residuals\":[\"bf16[16384]\"],\"out\":\"bf16[]\",\"dout\":\"bf16[]\",\"x\":\"bf16[16384,4096]\",\"labels\":\"i32[16384]\",\"w\":\"bf16[4096,128256]\",\"reduction\":\"sum\",\"return_residuals\":false}": {
    "{}": {
      "compile_time_ms": 15442.936111008748,
      "lower_time_ms": 17.0224389876239,
      "evaluation_times_ms": [
        70.384487,
        76.007611,
        75.56822,
        74.777502,
        75.788315
      ],
      "metadata": {
        "peak_memory_mb": 10276.15627670288
      }
    }
  },
  "{\"residuals\":[\"f32[16384]\"],\"out\":\"f32[]\",\"dout\":\"f32[]\",\"x\":\"f32[16384,4096]\",\"labels\":\"i32[16384]\",\"w\":\"bf16[4096,128256]\",\"reduction\":\"sum\",\"return_residuals\":false}": {
    "{}": {
      "compile_time_ms": 21882.58091401076,
      "lower_time_ms": 13.00251396605745,
      "evaluation_times_ms": [
        178.40861,
        180.389215,
        193.03383399999998,
        183.751546,
        187.60395499999998
      ],
      "metadata": {
        "peak_memory_mb": 19550.187530517578
      }
    }
  },
  "{\"residuals\":[\"bf16[32768]\"],\"out\":\"bf16[]\",\"dout\":\"bf16[]\",\"x\":\"bf16[32768,4096]\",\"labels\":\"i32[32768]\",\"w\":\"bf16[4096,128256]\",\"reduction\":\"mean\",\"return_residuals\":false}": {
    "{}": {
      "compile_time_ms": 19328.317953040823,
      "lower_time_ms": 19.691080029588193,
      "evaluation_times_ms": [
        147.613257,
        147.074345,
        157.637529,
        154.66540600000002,
        148.764422
      ],
      "metadata": {
        "peak_memory_mb": 18548.31252670288
      }
    }
  },
  "{\"residuals\":[\"f32[32768]\"],\"out\":\"f32[]\",\"dout\":\"f32[]\",\"x\":\"f32[32768,4096]\",\"labels\":\"i32[32768]\",\"w\":\"bf16[4096,128256]\",\"reduction\":\"mean\",\"return_residuals\":false}": {
    "{}": {
      "compile_time_ms": 43492.0112650143,
      "lower_time_ms": 17.624532978516072,
      "evaluation_times_ms": [
        356.66015999999996,
        368.49102700000003,
        385.348705,
        381.399493,
        375.873292
      ],
      "metadata": {
        "peak_memory_mb": 36094.37503051758
      }
    }
  },
  "{\"residuals\":[\"bf16[32768]\"],\"out\":\"bf16[]\",\"dout\":\"bf16[]\",\"x\":\"bf16[32768,4096]\",\"labels\":\"i32[32768]\",\"w\":\"bf16[4096,128256]\",\"reduction\":\"sum\",\"return_residuals\":false}": {
    "{}": {
      "compile_time_ms": 207.00535899959505,
      "lower_time_ms": 21.591788972727954,
      "evaluation_times_ms": [
        146.36772,
        151.54539499999998,
        163.92208,
        148.10109,
        146.078281
      ],
      "metadata": {
        "peak_memory_mb": 18548.31252670288
      }
    }
  },
  "{\"residuals\":[\"f32[32768]\"],\"out\":\"f32[]\",\"dout\":\"f32[]\",\"x\":\"f32[32768,4096]\",\"labels\":\"i32[32768]\",\"w\":\"bf16[4096,128256]\",\"reduction\":\"sum\",\"return_residuals\":false}": {
    "{}": {
      "compile_time_ms": 160.0171399768442,
      "lower_time_ms": 17.676287912763655,
      "evaluation_times_ms": [
        356.479085,
        363.107828,
        390.426572,
        377.99417,
        375.438052
      ],
      "metadata": {
        "peak_memory_mb": 36094.37503051758
      }
    }
  },
  "{\"residuals\":[\"bf16[131072]\"],\"out\":\"bf16[]\",\"dout\":\"bf16[]\",\"x\":\"bf16[131072,4096]\",\"labels\":\"i32[131072]\",\"w\":\"bf16[4096,128256]\",\"reduction\":\"mean\",\"return_residuals\":false}": {},
  "{\"residuals\":[\"f32[131072]\"],\"out\":\"f32[]\",\"dout\":\"f32[]\",\"x\":\"f32[131072,4096]\",\"labels\":\"i32[131072]\",\"w\":\"bf16[4096,128256]\",\"reduction\":\"mean\",\"return_residuals\":false}": {},
  "{\"residuals\":[\"bf16[131072]\"],\"out\":\"bf16[]\",\"dout\":\"bf16[]\",\"x\":\"bf16[131072,4096]\",\"labels\":\"i32[131072]\",\"w\":\"bf16[4096,128256]\",\"reduction\":\"sum\",\"return_residuals\":false}": {},
  "{\"residuals\":[\"f32[131072]\"],\"out\":\"f32[]\",\"dout\":\"f32[]\",\"x\":\"f32[131072,4096]\",\"labels\":\"i32[131072]\",\"w\":\"bf16[4096,128256]\",\"reduction\":\"sum\",\"return_residuals\":false}": {},
  "{\"residuals\":[\"bf16[4096]\"],\"out\":\"bf16[]\",\"dout\":\"bf16[]\",\"x\":\"bf16[4096,7168]\",\"labels\":\"i32[4096]\",\"w\":\"bf16[7168,128256]\",\"reduction\":\"mean\",\"return_residuals\":false}": {
    "{}": {
      "compile_time_ms": 160.24880402255803,
      "lower_time_ms": 19.640894955955446,
      "evaluation_times_ms": [
        29.510946,
        30.897506,
        32.372226,
        31.826211,
        32.231202
      ],
      "metadata": {
        "peak_memory_mb": 4653.0390911102295
      }
    }
  },
  "{\"residuals\":[\"f32[4096]\"],\"out\":\"f32[]\",\"dout\":\"f32[]\",\"x\":\"f32[4096,7168]\",\"labels\":\"i32[4096]\",\"w\":\"bf16[7168,128256]\",\"reduction\":\"mean\",\"return_residuals\":false}": {
    "{}": {
      "compile_time_ms": 183.34031698759645,
      "lower_time_ms": 18.69602093938738,
      "evaluation_times_ms": [
        75.084687,
        76.344016,
        77.854288,
        80.344753,
        78.18072
      ],
      "metadata": {
        "peak_memory_mb": 9492.546905517578
      }
    }
  },
  "{\"residuals\":[\"bf16[4096]\"],\"out\":\"bf16[]\",\"dout\":\"bf16[]\",\"x\":\"bf16[4096,7168]\",\"labels\":\"i32[4096]\",\"w\":\"bf16[7168,128256]\",\"reduction\":\"sum\",\"return_residuals\":false}": {
    "{}": {
      "compile_time_ms": 145.9561560768634,
      "lower_time_ms": 14.853030093945563,
      "evaluation_times_ms": [
        29.59072,
        32.016192,
        31.76448,
        32.035712000000004,
        32.477216
      ],
      "metadata": {
        "peak_memory_mb": 4653.039089202881
      }
    }
  },
  "{\"residuals\":[\"f32[4096]\"],\"out\":\"f32[]\",\"dout\":\"f32[]\",\"x\":\"f32[4096,7168]\",\"labels\":\"i32[4096]\",\"w\":\"bf16[7168,128256]\",\"reduction\":\"sum\",\"return_residuals\":false}": {
    "{}": {
      "compile_time_ms": 214.48495506774634,
      "lower_time_ms": 13.006253051571548,
      "evaluation_times_ms": [
        76.315433,
        76.299849,
        75.268041,
        77.285128,
        79.26964
      ],
      "metadata": {
        "peak_memory_mb": 9492.546905517578
      }
    }
  },
  "{\"residuals\":[\"bf16[4096]\"],\"out\":\"bf16[]\",\"dout\":\"bf16[]\",\"x\":\"bf16[4096,4096]\",\"labels\":\"i32[4096]\",\"w\":\"bf16[4096,151936]\",\"reduction\":\"sum\",\"return_residuals\":false}": {
    "{}": {
      "compile_time_ms": 5068.108431994915,
      "lower_time_ms": 20.527512999251485,
      "evaluation_times_ms": [
        20.22221,
        20.432738999999998,
        21.881738,
        22.544814,
        21.784521
      ],
      "metadata": {
        "peak_memory_mb": 3657.039089202881
      }
    }
  },
  "{\"residuals\":[\"f32[4096]\"],\"out\":\"f32[]\",\"dout\":\"f32[]\",\"x\":\"f32[4096,4096]\",\"labels\":\"i32[4096]\",\"w\":\"bf16[4096,151936]\",\"reduction\":\"sum\",\"return_residuals\":false}": {
    "{}": {
      "compile_time_ms": 9535.947850032244,
      "lower_time_ms": 17.775115033145994,
      "evaluation_times_ms": [
        51.922254,
        53.592246,
        53.643351,
        53.466933999999995,
        53.43439
      ],
      "metadata": {
        "peak_memory_mb": 8437.046905517578
      }
    }
  },
  "{\"residuals\":[\"bf16[16384]\"],\"out\":\"bf16[]\",\"dout\":\"bf16[]\",\"x\":\"bf16[16384,4096]\",\"labels\":\"i32[16384]\",\"w\":\"bf16[4096,151936]\",\"reduction\":\"mean\",\"return_residuals\":false}": {
    "{}": {
      "compile_time_ms": 18849.774741975125,
      "lower_time_ms": 19.607122987508774,
      "evaluation_times_ms": [
        84.84349999999999,
        90.234183,
        91.391917,
        90.269256,
        105.854583
      ],
      "metadata": {
        "peak_memory_mb": 12126.15627670288
      }
    }
  },
  "{\"residuals\":[\"f32[16384]\"],\"out\":\"f32[]\",\"dout\":\"f32[]\",\"x\":\"f32[16384,4096]\",\"labels\":\"i32[16384]\",\"w\":\"bf16[4096,151936]\",\"reduction\":\"mean\",\"return_residuals\":false}": {
    "{}": {
      "compile_time_ms": 26257.64630699996,
      "lower_time_ms": 19.48656002059579,
      "evaluation_times_ms": [
        210.09764199999998,
        228.888143,
        217.291761,
        220.856068,
        225.132091
      ],
      "metadata": {
        "peak_memory_mb": 23065.187530517578
      }
    }
  },
  "{\"residuals\":[\"bf16[16384]\"],\"out\":\"bf16[]\",\"dout\":\"bf16[]\",\"x\":\"bf16[16384,4096]\",\"labels\":\"i32[16384]\",\"w\":\"bf16[4096,151936]\",\"reduction\":\"sum\",\"return_residuals\":false}": {
    "{}": {
      "compile_time_ms": 18679.951013007667,
      "lower_time_ms": 13.264658977277577,
      "evaluation_times_ms": [
        85.884919,
        91.671831,
        90.392624,
        91.916473,
        104.360381
      ],
      "metadata": {
        "peak_memory_mb": 12126.15627670288
      }
    }
  },
  "{\"residuals\":[\"f32[16384]\"],\"out\":\"f32[]\",\"dout\":\"f32[]\",\"x\":\"f32[16384,4096]\",\"labels\":\"i32[16384]\",\"w\":\"bf16[4096,151936]\",\"reduction\":\"sum\",\"return_residuals\":false}": {
    "{}": {
      "compile_time_ms": 209.5346200512722,
      "lower_time_ms": 21.077094017527997,
      "evaluation_times_ms": [
        207.589522,
        213.461792,
        217.835403,
        211.564059,
        220.998194
      ],
      "metadata": {
        "peak_memory_mb": 23065.187530517578
      }
    }
  },
  "{\"residuals\":[\"bf16[32768]\"],\"out\":\"bf16[]\",\"dout\":\"bf16[]\",\"x\":\"bf16[32768,4096]\",\"labels\":\"i32[32768]\",\"w\":\"bf16[4096,151936]\",\"reduction\":\"mean\",\"return_residuals\":false}": {
    "{}": {
      "compile_time_ms": 156.2206210801378,
      "lower_time_ms": 19.3495909916237,
      "evaluation_times_ms": [
        169.63620699999998,
        175.99971299999999,
        186.979356,
        180.855404,
        180.68798
      ],
      "metadata": {
        "peak_memory_mb": 21878.31252670288
      }
    }
  },
  "{\"residuals\":[\"f32[32768]\"],\"out\":\"f32[]\",\"dout\":\"f32[]\",\"x\":\"f32[32768,4096]\",\"labels\":\"i32[32768]\",\"w\":\"bf16[4096,151936]\",\"reduction\":\"mean\",\"return_residuals\":false}": {
    "{}": {
      "compile_time_ms": 129.57532505970448,
      "lower_time_ms": 18.41127302031964,
      "evaluation_times_ms": [
        419.883562,
        424.746616,
        425.403033,
        438.843517,
        444.981965
      ],
      "metadata": {
        "peak_memory_mb": 42569.37503051758
      }
    }
  },
  "{\"residuals\":[\"bf16[32768]\"],\"out\":\"bf16[]\",\"dout\":\"bf16[]\",\"x\":\"bf16[32768,4096]\",\"labels\":\"i32[32768]\",\"w\":\"bf16[4096,151936]\",\"reduction\":\"sum\",\"return_residuals\":false}": {
    "{}": {
      "compile_time_ms": 134.9394799908623,
      "lower_time_ms": 13.067465974017978,
      "evaluation_times_ms": [
        171.55394,
        175.614527,
        190.64609099999998,
        179.856779,
        180.249645
      ],
      "metadata": {
        "peak_memory_mb": 21878.31252670288
      }
    }
  },
  "{\"residuals\":[\"f32[32768]\"],\"out\":\"f32[]\",\"dout\":\"f32[]\",\"x\":\"f32[32768,4096]\",\"labels\":\"i32[32768]\",\"w\":\"bf16[4096,151936]\",\"reduction\":\"sum\",\"return_residuals\":false}": {
    "{}": {
      "compile_time_ms": 153.4702570643276,
      "lower_time_ms": 14.288456994108856,
      "evaluation_times_ms": [
        435.110007,
        441.907789,
        429.41776600000003,
        430.47297000000003,
        433.240274
      ],
      "metadata": {
        "peak_memory_mb": 42569.37503051758
      }
    }
  },
  "{\"residuals\":[\"bf16[131072]\"],\"out\":\"bf16[]\",\"dout\":\"bf16[]\",\"x\":\"bf16[131072,4096]\",\"labels\":\"i32[131072]\",\"w\":\"bf16[4096,151936]\",\"reduction\":\"mean\",\"return_residuals\":false}": {},
  "{\"residuals\":[\"f32[131072]\"],\"out\":\"f32[]\",\"dout\":\"f32[]\",\"x\":\"f32[131072,4096]\",\"labels\":\"i32[131072]\",\"w\":\"bf16[4096,151936]\",\"reduction\":\"mean\",\"return_residuals\":false}": {},
  "{\"residuals\":[\"bf16[131072]\"],\"out\":\"bf16[]\",\"dout\":\"bf16[]\",\"x\":\"bf16[131072,4096]\",\"labels\":\"i32[131072]\",\"w\":\"bf16[4096,151936]\",\"reduction\":\"sum\",\"return_residuals\":false}": {},
  "{\"residuals\":[\"f32[131072]\"],\"out\":\"f32[]\",\"dout\":\"f32[]\",\"x\":\"f32[131072,4096]\",\"labels\":\"i32[131072]\",\"w\":\"bf16[4096,151936]\",\"reduction\":\"sum\",\"return_residuals\":false}": {},
  "{\"residuals\":[\"bf16[1024]\"],\"out\":\"bf16[]\",\"dout\":\"bf16[]\",\"x\":\"bf16[1024,2560]\",\"labels\":\"i32[1024]\",\"w\":\"bf16[2560,262144]\",\"reduction\":\"mean\",\"return_residuals\":false}": {
    "{}": {
      "compile_time_ms": 2765.00610797666,
      "lower_time_ms": 28.2964360085316,
      "evaluation_times_ms": [
        6.420263,
        6.4239109999999995,
        6.441031,
        6.483432,
        6.480072
      ],
      "metadata": {
        "peak_memory_mb": 3114.0097942352295
      }
    }
  },
  "{\"residuals\":[\"f32[1024]\"],\"out\":\"f32[]\",\"dout\":\"f32[]\",\"x\":\"f32[1024,2560]\",\"labels\":\"i32[1024]\",\"w\":\"bf16[2560,262144]\",\"reduction\":\"mean\",\"return_residuals\":false}": {
    "{}": {
      "compile_time_ms": 3245.65352499485,
      "lower_time_ms": 25.852967984974384,
      "evaluation_times_ms": [
        17.741806999999998,
        17.742991,
        17.742639,
        17.743951,
        17.762
      ],
      "metadata": {
        "peak_memory_mb": 5908.011749267578
      }
    }
  },
  "{\"residuals\":[\"bf16[1024]\"],\"out\":\"bf16[]\",\"dout\":\"bf16[]\",\"x\":\"bf16[1024,2560]\",\"labels\":\"i32[1024]\",\"w\":\"bf16[2560,262144]\",\"reduction\":\"sum\",\"return_residuals\":false}": {
    "{}": {
      "compile_time_ms": 2779.834537068382,
      "lower_time_ms": 20.772443967871368,
      "evaluation_times_ms": [
        6.449633,
        6.4463040000000005,
        6.468993,
        6.467201,
        6.540097
      ],
      "metadata": {
        "peak_memory_mb": 3114.009792327881
      }
    }
  },
  "{\"residuals\":[\"f32[1024]\"],\"out\":\"f32[]\",\"dout\":\"f32[]\",\"x\":\"f32[1024,2560]\",\"labels\":\"i32[1024]\",\"w\":\"bf16[2560,262144]\",\"reduction\":\"sum\",\"return_residuals\":false}": {
    "{}": {
      "compile_time_ms": 3180.766314966604,
      "lower_time_ms": 16.8218509061262,
      "evaluation_times_ms": [
        17.745321,
        17.757129,
        17.753513,
        17.740714,
        17.762922
      ],
      "metadata": {
        "peak_memory_mb": 5908.011749267578
      }
    }
  },
  "{\"residuals\":[\"bf16[2048]\"],\"out\":\"bf16[]\",\"dout\":\"bf16[]\",\"x\":\"bf16[2048,2560]\",\"labels\":\"i32[2048]\",\"w\":\"bf16[2560,262144]\",\"reduction\":\"mean\",\"return_residuals\":false}": {
    "{}": {
      "compile_time_ms": 4240.9524420509115,
      "lower_time_ms": 23.06576701812446,
      "evaluation_times_ms": [
        11.697143,
        11.926616000000001,
        12.545019,
        12.639259,
        12.677147
      ],
      "metadata": {
        "peak_memory_mb": 3636.0195598602295
      }
    }
  },
  "{\"residuals\":[\"f32[2048]\"],\"out\":\"f32[]\",\"dout\":\"f32[]\",\"x\":\"f32[2048,2560]\",\"labels\":\"i32[2048]\",\"w\":\"bf16[2560,262144]\",\"reduction\":\"mean\",\"return_residuals\":false}": {
    "{}": {
      "compile_time_ms": 5682.229329016991,
      "lower_time_ms": 21.4473259402439,
      "evaluation_times_ms": [
        29.82289,
        30.579373,
        30.560268,
        30.760205,
        31.06875
      ],
      "metadata": {
        "peak_memory_mb": 7976.023468017578
      }
    }
  },
  "{\"residuals\":[\"bf16[2048]\"],\"out\":\"bf16[]\",\"dout\":\"bf16[]\",\"x\":\"bf16[2048,2560]\",\"labels\":\"i32[2048]\",\"w\":\"bf16[2560,262144]\",\"reduction\":\"sum\",\"return_residuals\":false}": {
    "{}": {
      "compile_time_ms": 132.7115740859881,
      "lower_time_ms": 24.51473695691675,
      "evaluation_times_ms": [
        11.647589,
        11.691077,
        12.379781,
        12.434182,
        12.417157
      ],
      "metadata": {
        "peak_memory_mb": 3636.019557952881
      }
    }
  },
  "{\"residuals\":[\"f32[2048]\"],\"out\":\"f32[]\",\"dout\":\"f32[]\",\"x\":\"f32[2048,2560]\",\"labels\":\"i32[2048]\",\"w\":\"bf16[2560,262144]\",\"reduction\":\"sum\",\"return_residuals\":false}": {
    "{}": {
      "compile_time_ms": 134.28260304499418,
      "lower_time_ms": 20.17821604385972,
      "evaluation_times_ms": [
        29.910309,
        29.914566,
        30.719688,
        30.398183,
        30.542983
      ],
      "metadata": {
        "peak_memory_mb": 7976.023468017578
      }
    }
  },
  "{\"residuals\":[\"bf16[4096]\"],\"out\":\"bf16[]\",\"dout\":\"bf16[]\",\"x\":\"bf16[4096,2560]\",\"labels\":\"i32[4096]\",\"w\":\"bf16[2560,262144]\",\"reduction\":\"mean\",\"return_residuals\":false}": {
    "{}": {
      "compile_time_ms": 167.45846904814243,
      "lower_time_ms": 22.413422004319727,
      "evaluation_times_ms": [
        22.414054,
        23.635208,
        24.438505,
        24.185161,
        24.440745
      ],
      "metadata": {
        "peak_memory_mb": 6696.039089202881
      }
    }
  },
  "{\"residuals\":[\"f32[4096]\"],\"out\":\"f32[]\",\"dout\":\"f32[]\",\"x\":\"f32[4096,2560]\",\"labels\":\"i32[4096]\",\"w\":\"bf16[2560,262144]\",\"reduction\":\"mean\",\"return_residuals\":false}": {
    "{}": {
      "compile_time_ms": 138.71330209076405,
      "lower_time_ms": 22.95543102081865,
      "evaluation_times_ms": [
        58.009312,
        61.267494,
        60.361028,
        59.720067,
        59.688291
      ],
      "metadata": {
        "peak_memory_mb": 12112.046905517578
      }
    }
  },
  "{\"residuals\":[\"bf16[4096]\"],\"out\":\"bf16[]\",\"dout\":\"bf16[]\",\"x\":\"bf16[4096,2560]\",\"labels\":\"i32[4096]\",\"w\":\"bf16[2560,262144]\",\"reduction\":\"sum\",\"return_residuals\":false}": {
    "{}": {
      "compile_time_ms": 103.27166202478111,
      "lower_time_ms": 16.867193044163287,
      "evaluation_times_ms": [
        22.34712,
        23.251346,
        24.428757,
        23.997684,
        24.116116
      ],
      "metadata": {
        "peak_memory_mb": 6696.039089202881
      }
    }
  },
  "{\"residuals\":[\"f32[4096]\"],\"out\":\"f32[]\",\"dout\":\"f32[]\",\"x\":\"f32[4096,2560]\",\"labels\":\"i32[4096]\",\"w\":\"bf16[2560,262144]\",\"reduction\":\"sum\",\"return_residuals\":false}": {
    "{}": {
      "compile_time_ms": 10529.855636006687,
      "lower_time_ms": 24.824578955303878,
      "evaluation_times_ms": [
        58.220868,
        59.683259,
        60.089849,
        59.846362,
        59.666203
      ],
      "metadata": {
        "peak_memory_mb": 12112.046905517578
      }
    }
  },
  "{\"residuals\":[\"bf16[16384]\"],\"out\":\"bf16[]\",\"dout\":\"bf16[]\",\"x\":\"bf16[16384,2560]\",\"labels\":\"i32[16384]\",\"w\":\"bf16[2560,262144]\",\"reduction\":\"mean\",\"return_residuals\":false}": {
    "{}": {
      "compile_time_ms": 20749.06614201609,
      "lower_time_ms": 19.57991800736636,
      "evaluation_times_ms": [
        93.00264,
        99.709039,
        97.69176900000001,
        99.258353,
        106.550285
      ],
      "metadata": {
        "peak_memory_mb": 19104.15627670288
      }
    }
  },
  "{\"residuals\":[\"f32[16384]\"],\"out\":\"f32[]\",\"dout\":\"f32[]\",\"x\":\"f32[16384,2560]\",\"labels\":\"i32[16384]\",\"w\":\"bf16[2560,262144]\",\"reduction\":\"mean\",\"return_residuals\":false}": {
    "{}": {
      "compile_time_ms": 40789.49608100811,
      "lower_time_ms": 18.26913800323382,
      "evaluation_times_ms": [
        231.527394,
        247.526363,
        243.013327,
        243.160814,
        239.425822
      ],
      "metadata": {
        "peak_memory_mb": 36928.18753051758
      }
    }
  },
  "{\"residuals\":[\"bf16[16384]\"],\"out\":\"bf16[]\",\"dout\":\"bf16[]\",\"x\":\"bf16[16384,2560]\",\"labels\":\"i32[16384]\",\"w\":\"bf16[2560,262144]\",\"reduction\":\"sum\",\"return_residuals\":false}": {
    "{}": {
      "compile_time_ms": 20895.25786996819,
      "lower_time_ms": 13.863817031960934,
      "evaluation_times_ms": [
        94.442256,
        100.265621,
        98.322174,
        98.946364,
        109.032621
      ],
      "metadata": {
        "peak_memory_mb": 19104.15627670288
      }
    }
  },
  "{\"residuals\":[\"f32[16384]\"],\"out\":\"f32[]\",\"dout\":\"f32[]\",\"x\":\"f32[16384,2560]\",\"labels\":\"i32[16384]\",\"w\":\"bf16[2560,262144]\",\"reduction\":\"sum\",\"return_residuals\":false}": {
    "{}": {
      "compile_time_ms": 40718.40114297811,
      "lower_time_ms": 13.047157961409539,
      "evaluation_times_ms": [
        231.96532,
        251.405744,
        240.440801,
        247.574017,
        240.539616
      ],
      "metadata": {
        "peak_memory_mb": 36928.18753051758
      }
    }
  },
  "{\"residuals\":[\"bf16[32768]\"],\"out\":\"bf16[]\",\"dout\":\"bf16[]\",\"x\":\"bf16[32768,2560]\",\"labels\":\"i32[32768]\",\"w\":\"bf16[2560,262144]\",\"reduction\":\"mean\",\"return_residuals\":false}": {
    "{}": {
      "compile_time_ms": 41915.73121200781,
      "lower_time_ms": 22.644418000709265,
      "evaluation_times_ms": [
        196.116407,
        199.872918,
        207.411124,
        197.971767,
        210.928276
      ],
      "metadata": {
        "peak_memory_mb": 35648.31252670288
      }
    }
  },
  "{\"residuals\":[\"f32[32768]\"],\"out\":\"f32[]\",\"dout\":\"f32[]\",\"x\":\"f32[32768,2560]\",\"labels\":\"i32[32768]\",\"w\":\"bf16[2560,262144]\",\"reduction\":\"mean\",\"return_residuals\":false}": {},
  "{\"residuals\":[\"bf16[32768]\"],\"out\":\"bf16[]\",\"dout\":\"bf16[]\",\"x\":\"bf16[32768,2560]\",\"labels\":\"i32[32768]\",\"w\":\"bf16[2560,262144]\",\"reduction\":\"sum\",\"return_residuals\":false}": {
    "{}": {
      "compile_time_ms": 42145.4172230151,
      "lower_time_ms": 12.875508982688189,
      "evaluation_times_ms": [
        195.066966,
        197.2806,
        208.727519,
        194.166324,
        211.771777
      ],
      "metadata": {
        "peak_memory_mb": 35648.31252670288
      }
    }
  },
  "{\"residuals\":[\"f32[32768]\"],\"out\":\"f32[]\",\"dout\":\"f32[]\",\"x\":\"f32[32768,2560]\",\"labels\":\"i32[32768]\",\"w\":\"bf16[2560,262144]\",\"reduction\":\"sum\",\"return_residuals\":false}": {},
  "{\"residuals\":[\"bf16[131072]\"],\"out\":\"bf16[]\",\"dout\":\"bf16[]\",\"x\":\"bf16[131072,2560]\",\"labels\":\"i32[131072]\",\"w\":\"bf16[2560,262144]\",\"reduction\":\"mean\",\"return_residuals\":false}": {},
  "{\"residuals\":[\"f32[131072]\"],\"out\":\"f32[]\",\"dout\":\"f32[]\",\"x\":\"f32[131072,2560]\",\"labels\":\"i32[131072]\",\"w\":\"bf16[2560,262144]\",\"reduction\":\"mean\",\"return_residuals\":false}": {},
  "{\"residuals\":[\"bf16[131072]\"],\"out\":\"bf16[]\",\"dout\":\"bf16[]\",\"x\":\"bf16[131072,2560]\",\"labels\":\"i32[131072]\",\"w\":\"bf16[2560,262144]\",\"reduction\":\"sum\",\"return_residuals\":false}": {},
  "{\"residuals\":[\"f32[131072]\"],\"out\":\"f32[]\",\"dout\":\"f32[]\",\"x\":\"f32[131072,2560]\",\"labels\":\"i32[131072]\",\"w\":\"bf16[2560,262144]\",\"reduction\":\"sum\",\"return_residuals\":false}": {},
  "{\"residuals\":[\"bf16[1024]\"],\"out\":\"bf16[]\",\"dout\":\"bf16[]\",\"x\":\"bf16[1024,3840]\",\"labels\":\"i32[1024]\",\"w\":\"bf16[3840,262144]\",\"reduction\":\"mean\",\"return_residuals\":false}": {
    "{}": {
      "compile_time_ms": 3314.839398022741,
      "lower_time_ms": 28.350993990898132,
      "evaluation_times_ms": [
        9.441603,
        9.470692,
        9.485764,
        9.464068,
        9.642244
      ],
      "metadata": {
        "peak_memory_mb": 4399.0097942352295
      }
    }
  },
  "{\"residuals\":[\"f32[1024]\"],\"out\":\"f32[]\",\"dout\":\"f32[]\",\"x\":\"f32[1024,3840]\",\"labels\":\"i32[1024]\",\"w\":\"bf16[3840,262144]\",\"reduction\":\"mean\",\"return_residuals\":false}": {
    "{}": {
      "compile_time_ms": 4372.422660992015,
      "lower_time_ms": 24.16490000905469,
      "evaluation_times_ms": [
        24.123894,
        24.223543,
        24.19167,
        24.56796,
        24.19087
      ],
      "metadata": {
        "peak_memory_mb": 7838.011749267578
      }
    }
  }
}
